BusinessCase4_group13/Data/best_autoencoder.pth (torch, 162456 bytes, 32 tensors)

encoder.0.weight f4 [128, 42]
00000000: 6d09 883e d937 a3bd 8a09 c2bc ba38 f4bb
00000010: 4250 7a3d 6b44 123e d5ee 46be 124c 553d
00000020: ddd3 3e3c fad3 6abd e447 81be ef62 933c
00000030: 1eb3 973d c1d9 f23d 9c46 163d 02aa 2dbe
00000040: 7b4b c53d a6fd 6f3d 69a0 6e3e b0f2 67bd
00000050: 35e5 0f3e 7800 13be 75d8 563b cd09 c6bd
00000060: 1d9c 373c 6fb6 9cbc 48c0 8abd c194 663d
00000070: 6213 6ebd c90b cb3d 15d7 eb3d eb83 f53b
00000080: 4c32 9abc b784 083c 1eda fc3c c90d 333e
00000090: 16ce 48bd 72ec c23d 0a53 89bd 4c4a 59bd
000000a0: 7196 45be c65d 57be 547c 62bd 1076 953e
000000b0: 1af9 813e 18b9 773d 06eb fabd de2d 2cbc
000000c0: 2872 2d3e dd4d 30bd cca0 c23d 4de1 573d
000000d0: 0f0c 0e3d dfa1 6a3d 0201 6c3d c10a 803d
000000e0: 1aba 59bd 58f2 00bd 9697 833c 9485 bd3d
000000f0: c74e 8e3d 304a d9bc e6d0 b1bd f198 be3d
00000100: de8f 073b 44a7 51be 7875 5f3c 9a3a 3abd
00000110: fcf4 a9bd 849a c53b 6a78 4c3d 20b2 bb3b
00000120: 1815 363d 90b5 1cbe fee7 63be 935c c13c
00000130: 191d ccbd 5ea2 ebbd 6e3b 0d3e 2f7f 8f3d
00000140: 0ec0 b5bd 51fe 6f3b 0e19 433c 540f 363e
00000150: a914 f83d d8b1 3c3d 37ea e63d b7e7 063d
00000160: 7f5a 1dbd adbf 97bc d823 25be 9c94 fc3d
00000170: 48a4 933c 49b1 253e 3292 0fbd 3f29 db3d
00000180: a786 503d 3e8c 8b3d c3a2 f6bd fa62 33bb
00000190: b6b8 8dbc 756e cdbd 1761 333d e408 78be
000001a0: cd54 d6bd 8f3a 8f3d 4aee 023d 412d 903d
000001b0: 7c94 a8bd 485b b5bd 385d 3a3e 1b2d 833d
000001c0: e226 86bd 01c4 65bd f3dc 183e 5811 5c3e
000001d0: 4b66 203e bb76 9a3e 2372 e63c 704b 71bc
000001e0: 61c4 29bd 8783 9dbd 1270 0abe 6d12 283e
000001f0: f8ed 2ebd a374 9a3d c764 82be 3a18 4f3e
00000200: fcff 233e 4786 1f3c 55f7 aa3a ed5e 96bd
00000210: 90ce 0fbe 401d 323e 02b2 1e3e 4af6 823d
00000220: 21f1 c93c 19e3 2bbd 9364 74bd fec9 a93d
00000230: 7f68 3d3d 11ce 2e3e e696 0fbe 4953 3dbd
00000240: 8bc2 d63d 7252 42be 1d3d afbd 34a5 053d
00000250: c8d7 bebd 4e20 3e3e dc7f d4bc a153 743d
00000260: 0771 b33d fc10 0c3e ce24 cd3c 74cc 9bbd
00000270: 8ba9 c6bc 6b0a eb3d 109c eb3d 4677 e6bd
00000280: 981d 2abe e96f 923d a402 33bc 0ccf 4039
00000290: 03df 51bd ccfb 5c3d 274b aebd 2528 07be
000002a0: 080a 09be 86ec e63d 4878 f03d 8519 df3d
000002b0: 3e03 0c3e dcde f53d 0870 d7bc d066 39be
000002c0: a57a 843d 1db9 2d3e c427 99bc ee53 62bd
000002d0: 76ac 11be 567a 40bc 8f3f 3abd cda6 5cbd
000002e0: d592 f2bd b7ab a63c 26b4 96bd ed67 913d
000002f0: 287a 79bd 4847 ed3d 5454 8b3d 3a31 243c
00000300: a3a2 033e 0fca ddbd e44c b4be daff b43d
00000310: bd87 2d3e 4ee5 dfbc 92cf 453e cc24 05be
00000320: 4ef2 7e3c 9cc1 d73d a76d 3b3d ac69 febd
00000330: 285c 913d dbca 5abd 6bcf 58bd eb7f 783e
00000340: 802c 023d 634e 463d b866 aabd 35a8 603d
00000350: d673 363e 06f7 f5bd fd7b d03c 597f 373e
00000360: 136f 063e a2dd 923d 584f cfbc 867c ccbd
00000370: 50f2 efba 42d3 9ebd 1ba8 25be 91bb 48bb
00000380: a4a6 8c3c 9653 90be 2fb4 42bd e6e2 02be
00000390: e4a9 bb3d 2e29 3fbd 88f3 933d 2b92 41bd
000003a0: 317f 2dbe c65c 4d3e 04d4 fe3c 50ee cc3c
000003b0: 1270 44bd ed00 443d fe2d ecbd 5cb1 d2bd
000003c0: 78e3 01be 917b c33d 9831 473d c472 f3bd
000003d0: b23e d03d f305 823c ec74 88bd 6e8d 8abd
000003e0: 7254 5d3d 1a8d a83d 628d c3bd 6392 7b3e
000003f0: 440c 0dbd 525f 383a 9f19 8bbd a943 563e
0.2656969 -0.079696365 -0.02368619 -0.0074530514 0.061111696 0.14283912 -0.19427045 0.0520745
0.011647192 -0.057331063 -0.2525016 0.017991511 0.07407211 0.118579395 0.036688432 -0.16959384
0.096335374 0.058591507 0.23303379 -0.05662793 0.1405228 -0.14355648 0.0032782827 -0.09669838
0.011206654 -0.01912996 -0.06774956 0.056294207 -0.058123954 0.09914357 0.11515633 0.0074925325
-0.018822812 0.008332423 0.030865725 0.17485727 -0.049024664 0.095177546 -0.067052916 -0.05304937
-0.1929567 -0.21031865 -0.05529435 0.29191637 0.25385362 0.060479254 -0.122518584 -0.010508982
0.16938078 -0.043043006 0.09503326 0.052705098 0.03467947 0.05728328 0.05761815 0.06252051
-0.053155996 -0.031481117 0.016063493 0.09253994 0.06948619 -0.026524633 -0.08682422 0.09306515
0.0020685117 -0.20473963 0.013638847 -0.045466043 -0.0829868 0.0060303826 0.049919523 0.0057280213
0.04445371 -0.15303636 -0.22256467 0.023603713 -0.099664874 -0.115055785 0.13792202 0.0700668
-0.08874522 0.003662009 0.011907829 0.17779285 0.121133156 0.046068043 0.11275142 0.032935824
-0.038416382 -0.018524015 -0.16126955 0.123330325 0.018022671 0.1618091 -0.035051532 0.107012264
0.050909664 0.068138584 -0.12042763 -0.0027372227 -0.017299991 -0.10030834 0.043793764 -0.24222142
-0.10465393 0.06993591 0.03196553 0.070398815 -0.08231446 -0.08855301 0.18199623 0.064050876
-0.06550385 -0.056095127 0.14928035 0.21490991 0.15664022 0.3016871 0.028130597 -0.014727458
-0.041447047 -0.076911025 -0.13519314 0.16413279 -0.042707413 0.07541778 -0.25467512 0.20224085
0.16015619 0.009736604 0.0013043681 -0.073423244 -0.14043641 0.1739397 0.15497592 0.06394632
0.024651112 -0.041964624 -0.059666228 0.0829048 0.046242233 0.17070796 -0.14022407 -0.046222005
0.10486325 -0.18976763 -0.08556578 0.032628253 -0.09318501 0.18567011 -0.025939874 0.059650067
0.08761793 0.13678354 0.025041964 -0.07607356 -0.024250766 0.114765964 0.11504376 -0.11253218
-0.16612852 0.071502514 -0.010925923 0.00018387678 -0.05123807 0.05395107 -0.08510428 -0.13198908
-0.13382733 0.11275582 0.11741692 0.10893539 0.13673112 0.12005398 -0.026298538 -0.18105626
0.06468705 0.16965146 -0.01869572 -0.055255823 -0.14225945 -0.011747917 -0.04547077 -0.05387001
-0.11844412 0.020345552 -0.07358579 0.070999004 -0.060907513 0.115858614 0.06803194 0.010021502
0.1285501 -0.10829555 -0.35214913 0.08837862 0.16946311 -0.02733102 0.19317463 -0.13002318
0.0155607 0.10534975 0.04575887 -0.12422499 0.070976555 -0.053416114 -0.052932184 0.24267547
0.03178072 0.0484146 -0.08320373 0.054847915 0.17817625 -0.120100066 0.025449747 0.17919673
0.13128309 0.07171179 -0.025306389 -0.099846885 -0.0018306468 -0.07755138 -0.16177408 -0.0030629376
0.017169304 -0.2818877 -0.047535118 -0.12781867 0.091632634 -0.04667013 0.07224184 -0.047258537
-0.16943051 0.20054922 0.031106956 0.02501598 -0.04795844 0.047852445 -0.1153221 -0.10287735
-0.12684429 0.09545053 0.04863128 -0.11887124 0.10168208 0.015871977 -0.06662926 -0.06765257
0.05403561 0.08230038 -0.09548451 0.24567561 -0.034435526 0.0007033247 -0.06791996 0.20924248

encoder.0.bias f4 [128]
00000000: c03a f3b2 895d f5b5 fffd 2d36 c8e5 4c36
00000010: 4ea6 f8b5 03a7 d6b4 c3c6 9f35 eb12 26b5
00000020: 3b46 f8b5 89a4 89b6 8274 6a34 30ed a135
00000030: 546c e9b4 2b3c 9235 f323 af35 e2e1 aa34
00000040: 76dd c534 169a 2eb5 72f2 0936 c3a4 37b6
00000050: 99a5 2335 2543 3c36 10ea c1b4 5018 0936
00000060: 75ff 3634 acda 44b6 eebf 5135 4405 3d34
00000070: f0b7 78b6 96cd 1536 2cb0 24b2 5653 c135
00000080: a4ea 02b5 560c a1b5 a176 2436 f533 4eb6
00000090: a65d 2b37 2dec 3335 2af7 fcb4 b344 cd35
000000a0: 0adf c6b5 9e28 6436 f788 26b5 1f2f 3436
000000b0: e01c 61b5 4211 d735 30f8 84b2 ec18 0535
000000c0: e593 fbb4 f693 d3b4 d8ad 6ab5 9157 9b36
000000d0: 3ad0 2e36 4a6c 8b35 c3b1 9fb5 a54a f9b4
000000e0: f25e d0b5 8044 d8b1 bd93 cb36 aeef 8bb5
000000f0: 6df9 c034 b069 f033 9648 63b5 3e57 ff34
00000100: 3878 9fb6 ba15 0136 0417 d7b5 44f5 9a35
00000110: 4fd5 a034 28ef d034 bbde 0335 0d61 d1b5
00000120: 566d b135 65d4 0eb4 cdd2 fab4 0d94 0b36
00000130: e4d2 a633 f639 1234 1c46 0f35 c293 1035
00000140: b289 6236 50f8 0a36 9cd2 b1b3 b67c 9ab4
00000150: 8a36 4435 0389 9734 fa3c a7b3 b1db bfb5
00000160: 3a67 2334 9c5f c735 e32f c934 e871 fcb4
00000170: 694e b7b6 da71 6735 20da 4db4 10ae 90b6
00000180: 978b 30b4 1bf0 1235 c862 9fb5 8285 90b5
00000190: 6612 2336 c7cd 03b6 6785 8835 ca76 5cb5
000001a0: ba69 4e35 f67e 9ab5 c52a 2d36 2bb3 7ab5
000001b0: fd99 0f36 d1ed 4b36 bf71 0d35 062d 03b4
000001c0: eaf8 d335 e4ca 4bb4 368d 2e35 aa76 c034
000001d0: 440e da35 2512 0fb6 5f86 deb5 fcce dc33
000001e0: 8601 d9b4 184c 22b5 c8c0 4534 f232 a5b5
000001f0: 9499 7835 865c c7b4 ea04 a3b5 bc26 f034
-2.831564e-08 -1.8281145e-06 2.5926854e-06 3.053212e-06 -1.8525841e-06 -3.9982123e-07 1.190427e-06 -6.186735e-07
-1.849788e-06 -4.1020726e-06 2.1835334e-07 1.2064465e-06 -4.347845e-07 1.0895359e-06 1.3048979e-06 3.182932e-07
3.6855243e-07 -6.5044276e-07 2.0555713e-06 -2.736503e-06 6.096321e-07 2.8053266e-06 -3.6119354e-07 2.0428743e-06
1.7043006e-07 -2.933356e-06 7.813786e-07 1.7603912e-07 -3.7061945e-06 2.2322397e-06 -9.586113e-09 1.4403875e-06
-4.877022e-07 -1.1999025e-06 2.4506955e-06 -3.0726635e-06 1.02141985e-05 6.702638e-07 -4.7118493e-07 1.5293684e-06
-1.4817062e-06 3.399829e-06 -6.203913e-07 2.6849518e-06 -8.386105e-07 1.6023771e-06 -1.5479685e-08 4.9582627e-07
-4.686e-07 -3.9409468e-07 -8.742477e-07 4.629554e-06 2.6049224e-06 1.0387823e-06 -1.1898159e-06 -4.6434175e-07
-1.552484e-06 -6.294215e-09 6.0670704e-06 -1.0426063e-06 3.5944268e-07 1.1195095e-07 -8.4669716e-07 4.7560928e-07
-4.7525646e-06 1.9235144e-06 -1.6025447e-06 1.1545276e-06 2.9957525e-07 3.8917028e-07 4.912542e-07 -1.5599959e-06
1.3219349e-06 -1.3302049e-07 -4.6719506e-07 2.079879e-06 7.768338e-08 1.3618396e-07 5.3373674e-07 5.3859196e-07
3.3756774e-06 2.070814e-06 -8.2805144e-08 -2.8775474e-07 7.3095055e-07 2.822563e-07 -7.787635e-08 -1.4294548e-06
1.5218112e-07 1.4854481e-06 3.747401e-07 -4.7021535e-07 -5.462953e-06 8.621988e-07 -1.9171466e-07 -4.311798e-06
-1.644206e-07 5.473864e-07 -1.1875172e-06 -1.0767692e-06 2.4299602e-06 -1.96403e-06 1.0171615e-06 -8.212925e-07
7.689483e-07 -1.1510845e-06 2.5803904e-06 -9.339298e-07 2.1398293e-06 3.0387785e-06 5.2692116e-07 -1.2216705e-07
1.5793169e-06 -1.897966e-07 6.502554e-07 3.5849126e-07 1.6246418e-06 -2.1319222e-06 -1.6579396e-06 1.02821986e-07
-4.0420508e-07 -6.0460434e-07 1.8417188e-07 -1.2308285e-06 9.2610685e-07 -3.7133958e-07 -1.2145877e-06 4.4731667e-07

encoder.1.weight f4 [128]
00000000: 226f 5f3f 9ba8 453f 986e 4a3f 3190 3f3f
00000010: 86af 503f 2b26 473f 0d2a 433f b047 5d3f
00000020: b97b 483f 298f 483f 87de 583f 965b 5a3f
00000030: 4e0b 553f 44f2 543f 8d90 503f 542a 553f
00000040: 0c4e 3a3f 3477 4e3f ff81 513f 32e5 4d3f
00000050: a9f7 4f3f c926 593f ee53 4e3f 068e 4b3f
00000060: ec77 533f 8492 503f 427f 4c3f 8404 573f
00000070: 0771 443f 9c5b 553f 2ff3 643f 6efd 443f
00000080: bbc2 4d3f 00af 5d3f 08ef 4a3f 21b6 383f
00000090: 9c51 563f f16e 4b3f 1fed 503f a2bf 3d3f
000000a0: c187 4d3f 8a17 483f 417b 463f 41c1 573f
000000b0: 681b 4e3f c774 413f cdd7 5a3f f7b2 493f
000000c0: 1e92 4c3f ed11 443f 455b 403f 7ff3 613f
000000d0: c772 573f 4f95 483f 46ed 523f 4390 513f
000000e0: c1c2 253f 2c22 533f 8d89 3a3f c7a3 5a3f
000000f0: fcd9 493f c727 4f3f 0a77 4b3f 32b9 543f
00000100: ad62 513f a0cb 403f 9f0a 5f3f 4a15 563f
00000110: 8bc3 5a3f 7bd4 473f 35bf 533f fdb8 583f
00000120: 1f06 523f d03d 473f 0ed8 533f 95ad 503f
00000130: e8c1 4a3f ad39 503f 1616 423f 8393 593f
00000140: d678 433f 75a3 543f 485b 4d3f 7bb0 453f
00000150: dce2 423f bdb7 563f 841c 4f3f 854b 4e3f
00000160: f7cf 4c3f a4c0 583f da73 423f 4e68 3d3f
00000170: 0d1d 473f 024f 583f 2df3 453f b158 573f
00000180: 48d4 4e3f e047 553f 8ac9 453f 7a11 503f
00000190: 7771 523f 3df1 3f3f cc3d 373f 7508 3a3f
000001a0: c7fc 453f c888 4d3f 4e3b 483f a369 403f
000001b0: 639b 503f 939d 4e3f d022 513f b553 493f
000001c0: d9c0 4f3f aec8 4a3f fd38 483f 6cfb 493f
000001d0: 5e8f 483f d163 4a3f 6f4d 593f 4b52 463f
000001e0: 141c 453f 358d 4b3f 9d70 473f 84b2 423f
000001f0: ab19 3d3f 1c03 393f deec 513f 9452 433f
0.8727895 0.77210397 0.79075 0.74829394 0.8151783 0.77792615 0.7623604 0.8643751
0.78313786 0.78343445 0.8471455 0.85296 0.83220375 0.8318217 0.81470567 0.8326771
0.7277534 0.8065064 0.81838983 0.8042785 0.81237274 0.84824806 0.80596817 0.79513586
0.8260486 0.81473565 0.7988168 0.83991265 0.76734966 0.8334291 0.8943357 0.76949203
0.8037526 0.86595154 0.7927098 0.72152907 0.83718276 0.7946616 0.8161182 0.74120533
0.8028527 0.7816092 0.7753182 0.8427926 0.8051057 0.75568813 0.85485536 0.78788704
0.7991046 0.7658985 0.75139266 0.8826217 0.8415951 0.78352827 0.823933 0.8186075
0.64750296 0.8247402 0.72866136 0.85406154 0.7884824 0.8092007 0.79478514 0.83095086
0.8179119 0.7531071 0.8712558 0.83626235 0.85454625 0.78058594 0.82713634 0.8465727
0.8204059 0.77828693 0.8275155 0.81514865 0.7920213 0.81338006 0.7581495 0.8499071
0.76356256 0.83061916 0.8021741 0.7722241 0.7612741 0.8387411 0.80902886 0.80583984
0.8000483 0.84668946 0.75958025 0.7398728 0.777787 0.84495556 0.7732418 0.8411971
0.80792665 0.833128 0.7726065 0.8127667 0.82204384 0.74977475 0.7157867 0.72669154
0.7733883 0.80286837 0.7821549 0.7516119 0.814871 0.8070919 0.81693745 0.7864335
0.8115364 0.7921246 0.7821196 0.78899264 0.7834376 0.7905856 0.8488378 0.7746932
0.7699597 0.7951234 0.7790621 0.76053643 0.7386729 0.7227037 0.82002056 0.7629788

encoder.1.bias f4 [128]
00000000: 3e05 753c 0466 ab3d be7a 023e 925d b43d
00000010: 8967 c23d 2475 243d 2ffa 47bd 0f50 033e
00000020: acd4 adba a78a 21bd f745 2ebd 851c c03d
00000030: 7e86 27bd c1e7 933d 297b fa3d e5df c43d
00000040: 92d5 a83d 4225 153e d670 1fbc cde5 3e3d
00000050: a886 8b3d aae4 913d 578a c3bc 642e cdbd
00000060: 0308 11bd d2f6 253d de3b 083e 92cd 0ebc
00000070: 4eb6 2d3e 93a7 a03d d3b7 eebd f036 653d
00000080: 00bd 59bd f664 903d af67 313d 716a a53d
00000090: c96e 93bd 6008 f3bb 68da fe3c bd2b ee3d
000000a0: d6b1 7c3d 4596 d33c 83db 843d 4249 74bd
000000b0: da5d 8d3d 1378 0b3e 482a 5e3d 1d08 f33d
000000c0: dbed 213d 2611 6ebc edcc 473e 737c b5bc
000000d0: 830e 9a3d 9125 b03d 502d 133d 8d6d 1bbc
000000e0: 29bb 483e b4a0 75bd c648 993e 12e0 33ba
000000f0: 3d00 c5bc 6035 f0bd 40f4 403d db17 ae3c
00000100: c741 213e 21d0 d03d 754c e33d 6089 e0bd
00000110: c401 b53d c9fa f53d c943 cf3c bfd9 b8bd
00000120: 1b81 0b3e 3928 593e 48a2 d1ba cab5 833d
00000130: ca94 903d 1ecd a63d 0608 1e3e e807 643d
00000140: fa21 04bc bc92 8e3d 3925 633d 13c2 30bc
00000150: 30ae 973c 84ca e63c cea2 9a3d 8cb0 0cbc
00000160: 5f58 113d 2e9c 093e 0c76 6c3d e4e0 b13d
00000170: b6a0 243c 7e07 253e 50c5 a13d ba20 26be
00000180: 3cdf 8d3d 3a2c 733c 9084 893d 84d5 f0ba
00000190: 486a b93d 2115 833d 1e67 df3d 8630 663d
000001a0: d2ab b63d f934 233d a55c 3bbd 6e70 323d
000001b0: 233c 083e 7f97 b13b e40f 6c3d b59f 363e
000001c0: 6674 ef3d 23f7 5cbc 8ce1 0e3e a787 fb3c
000001d0: 3d91 463e 05c6 3f3d 3f2c 963d 5679 323d
000001e0: 5644 093d 80fb dc3c 19ab 723d 3226 aabc
000001f0: 8e22 b53d 0898 003e 5031 2b3b 8534 88bd
0.014954863 0.08369067 0.12742135 0.088069096 0.09492404 0.040150777 -0.048822578 0.12823509
-0.0013262234 -0.03943887 -0.042547192 0.0938044 -0.040899746 0.07221938 0.12230522 0.09613017
0.0824386 0.14564994 -0.009731492 0.046605874 0.06812793 0.07123692 -0.023869677 -0.10018614
-0.03540803 0.04051859 0.13304088 -0.008716004 0.16964075 0.07844462 -0.116561554 0.055960596
-0.05315876 0.07050507 0.04331177 0.08076943 -0.07198865 -0.00741677 0.031110004 0.11629436
0.061693035 0.02582849 0.06487181 -0.059640177 0.069026664 0.13620023 0.05423954 0.11866782
0.039533477 -0.014530456 0.19511767 -0.022154069 0.07522299 0.08600915 0.035931885 -0.009486568
0.19602646 -0.05996771 0.29938334 -0.0006861697 -0.024047965 -0.117289305 0.047107935 0.02125161
0.15747748 0.101959474 0.110985674 -0.10963702 0.088382274 0.12010724 0.025300877 -0.09025907
0.13623469 0.2120675 -0.0015993798 0.06431158 0.07059629 0.08144592 0.15432748 0.055671602
-0.008064741 0.06961581 0.05545542 -0.010788458 0.018515676 0.028172739 0.07550584 -0.008587014
0.035484668 0.13438484 0.057729766 0.086854726 0.010048082 0.1611614 0.078989625 -0.16223422
0.06927344 0.014842087 0.067147374 -0.001837418 0.09053475 0.064005144 0.1090834 0.05619862
0.08919491 0.03984544 -0.04574265 0.043564253 0.1330419 0.005419671 0.057632342 0.17834361
0.11692123 -0.013486656 0.13953227 0.030704333 0.19391342 0.046819706 0.07332658 0.043572746
0.033512436 0.026975393 0.059245203 -0.020770166 0.088444814 0.12557995 0.0026121922 -0.06650642

encoder.1.running_mean f4 [128]
00000000: 36d5 143b 1cca a8bb 41fe 1dbc ad5d 17bc
00000010: 14b3 dbbb ea2e 033c a38c 9b3b c34e c7bb
00000020: 9f4f 80bb 4cc5 603b daf8 27ba f329 1bbc
00000030: ea95 d23b 80b6 e0b9 831e c0bb 9d71 983b
00000040: 5056 c8ba 1c25 053c 7e06 cdbb 9698 7f3b
00000050: db04 fc3b ea7c 7c3b e81e 72bb 4058 73bb
00000060: 705b 093c 12ec e23b 182b e23b d03f f9bb
00000070: df17 2bbc 60b1 093c ec8b 4fbc bde7 bfbb
00000080: fe78 fabb b620 a2ba 46d3 31bc 6844 0a3b
00000090: 851b be3a e97b 01bc 90b5 2a3b c385 0b3c
000000a0: 405c 4b3a 2694 1b3c 9cdf 1abb c426 f5ba
000000b0: 8040 deb8 a03d 29bb 5e5e 61bc ca3c 29bc
000000c0: 2b6c 2f3c 7c84 3c3c 048f 2b3b b49c c03a
000000d0: a6ce 973b e005 7ebc d747 bf3b efaf 16bc
000000e0: 2e24 bfbb dcb1 24ba 6829 9abb 5aac 763c
000000f0: a01c c5ba d57b 0fbc 8fca 61bc 662e 7e3b
00000100: 3023 9eba b8c3 33bb f8be 16bc 6246 113c
00000110: e27a 1f3c d074 4c3b 14b2 af3b ac88 703b
00000120: 6a22 e2ba 9a26 2ebc 4ea2 b83b 9824 9f3b
00000130: a0c4 ed3b ae6f 553c 2aa0 ed3b 58fe e6ba
00000140: cfb3 8cbb a022 40ba f4c7 0d3c 98d3 a23b
00000150: c0c9 1c3c 70b7 cfbb b802 ad3b 78ff 83ba
00000160: e281 68bb 802c 623a b96c 0b3c c09b 273c
00000170: f8fc a73a a34a 69bb 176c 9abb c09e 25bb
00000180: 40f0 7739 e057 af3b 9a9e 353a 802b 6a39
00000190: 2072 a4b9 3822 cf3a 8024 8ebb 3065 70ba
000001a0: 1e26 d23b 2829 b63b 01c2 16bc a098 3bbb
000001b0: 9045 3eb9 a83e 90bb 3578 d4bb a4a7 30bb
000001c0: 6e94 01bc a2a9 92bb e206 9fba 8708 0e3c
000001d0: 074d c0bb cff5 8abc 7ed4 123b f6e8 bd3b
000001e0: e02e 3aba 4c5a 923b 4e9e 3cbb 9823 273b
000001f0: 06ad 5abc a090 9639 0661 a7bb d032 db3a
0.0022710091 -0.0051510464 -0.009643138 -0.009238643 -0.0067046974 0.008006791 0.00474699 -0.006082387
-0.0039157416 0.0034297286 -0.0006407626 -0.009470451 0.0064265626 -0.00042860582 -0.0058630123 0.0046522156
-0.0015284512 0.008126523 -0.0062568774 0.003900086 0.0076910085 0.0038526603 -0.003694469 -0.0037131459
0.008383617 0.0069251144 0.00690211 -0.007606484 -0.010442703 0.008404106 -0.012667637 -0.005856483
-0.007643818 -0.0012369368 -0.010853594 0.0021097902 0.0014504051 -0.007903078 0.002604816 0.008515778
0.0007757582 0.009495771 -0.0023631817 -0.001870357 -0.00010597799 -0.0025824085 -0.013755409 -0.010329435
0.010706942 0.011506196 0.0026177773 0.0014695139 0.0046327887 -0.01550433 0.0058374214 -0.009197219
-0.0058331704 -0.00062826066 -0.004704643 0.01505574 -0.0015038438 -0.008757551 -0.013781204 0.003878498
-0.001206493 -0.002742989 -0.009200804 0.008866878 0.009733887 0.0031197555 0.0053618047 0.0036702557
-0.0017252688 -0.0106293205 0.0056345826 0.0048566572 0.0072561055 0.013027115 0.007251759 -0.0017623408
-0.004293896 -0.0007329378 0.00865363 0.0049690716 0.009569585 -0.006339006 0.005279865 -0.0010070642
-0.0035477807 0.0008627847 0.008509808 0.010230005 0.001281648 -0.0035597465 -0.0047125923 -0.0025271624
0.00023645256 0.0053510517 0.00069282355 0.00022332184 -0.00031365547 0.0015803045 -0.004337847 -0.00091703515
0.0064132353 0.0055591054 -0.009201528 -0.0028624907 -0.00018145726 -0.0044020005 -0.0064840564 -0.002695539
-0.007908924 -0.004475788 -0.0012132789 0.008669025 -0.0058685574 -0.016962914 0.0022404487 0.0057955934
-0.0007102322 0.0044663306 -0.002878088 0.0025503393 -0.013346916 0.00028717984 -0.0051080016 0.0016723517

encoder.1.running_var f4 [128]
00000000: 0048 113f 795a 0a3f dd76 223f 08c6 de3e
00000010: 7d63 273f 2cfa ea3e 0d76 553f 4ad2 263f
00000020: 3552 153f 82cc 603f 36ef 303f 5bdf 293f
00000030: 211b 0d3f 6e7f 0a3f fd60 383f 3773 2a3f
00000040: 228d 8b3f 73d7 193f e604 163f ad07 453f
00000050: 4e00 1c3f a8a7 253f 1e9c 513f 2d3b 8d3f
00000060: 42b3 543f bc00 343f 367c 033f 331f 3f3f
00000070: dd00 5f3f 0fce 403f 582b 843f feda fc3e
00000080: f537 333f ecbf fa3e fee0 493f 96ed 033f
00000090: 3287 d13f 0000 683f 6e34 6f3f 71be 503f
000000a0: a984 0b3f 66cd 463f 9a59 333f 41f6 483f
000000b0: 3389 733f aca3 093f 55b0 0e3f 46cb 013f
000000c0: 6264 653f 459f 683f 4533 153f 7654 fa3e
000000d0: fc79 4c3f d147 2d3f 15dd 0e3f 0350 5a3f
000000e0: e538 fe3e 37ca be3f 6d6d 223f b81f 503f
000000f0: e9d3 9b3f e259 7c3f 5c1f 3c3f de67 313f
00000100: 696a 1c3f 1c37 223f 6f28 0b3f 5961 4a3f
00000110: 00ea 083f d4ec 6a3f 6bca 9e3f 973c 013f
00000120: 22ec 1e3f 7d7d 2c3f 4f93 943f 63fd 2b3f
00000130: a82f 013f 3412 203f 09ce 2d3f 73ca 1c3f
00000140: 7f3a 3a3f 74f5 883f f569 d83e bb94 813f
00000150: 35bc 0c3f be2b 5b3f 3d41 953f 723c 8d3f
00000160: bde8 583f 6c62 2a3f f708 5f3f 8930 203f
00000170: 6a42 133f 1406 2f3f afcb 4b3f 73ff a43f
00000180: 9e3f 263f 2e82 223f fd6c 0d3f 41c9 a13f
00000190: d794 253f e8a8 e43e 3e87 c83e 379b 973f
000001a0: c6b5 553f c00a 053f 481e 873f 9fc6 6a3f
000001b0: 8a48 153f 3399 0c3f 6178 0b3f 6aea 163f
000001c0: 4e78 103f feb9 2e3f 5efc 2a3f 6765 553f
000001d0: 709c 233f 5b32 1d3f 97f7 fd3e 5f4b e63e
000001e0: 67e8 213f b067 503f eab8 1e3f 25e0 4c3f
000001f0: c8c2 6a3f 3b37 363f b2c6 093f 1215 d33e
0.5675049 0.540443 0.6346262 0.4351046 0.6538618 0.4589399 0.83383256 0.65164626
0.5832856 0.87812054 0.69115007 0.6635644 0.5511952 0.5410069 0.7202299 0.66582054
1.0902445 0.60094374 0.58601224 0.7696484 0.60937965 0.6470895 0.8187884 1.1033684
0.83086026 0.7031362 0.51361406 0.7465698 0.8711069 0.7531442 1.0325727 0.49385828
0.7000726 0.4897455 0.78858936 0.515344 1.6369383 0.90625 0.93439376 0.8154059
0.544993 0.77657163 0.70058596 0.78500754 0.95131224 0.5376537 0.5573781 0.50700796
0.89606297 0.90868026 0.58281356 0.48892564 0.79873633 0.6768771 0.55806094 0.8527834
0.49652782 1.4905461 0.6344822 0.812984 1.2174045 0.9857465 0.7348535 0.69299114
0.6109987 0.6336534 0.5435857 0.7905479 0.53482056 0.9176762 1.2405523 0.5048308
0.6207906 0.6737898 1.1607455 0.6718351 0.5046334 0.62527776 0.6789251 0.61246413
0.7274551 1.0699906 0.4226834 1.0123514 0.5497468 0.8561362 1.1660534 1.1034071
0.8473013 0.6655643 0.87123054 0.6257406 0.57523215 0.6836865 0.7960767 1.2890457
0.6494082 0.6347989 0.5524443 1.2639543 0.64680237 0.44660115 0.39165682 1.1844243
0.8348049 0.5196953 1.0556116 0.9170932 0.5831381 0.54921263 0.5448056 0.5895144
0.5643357 0.6825255 0.6679133 0.8335785 0.6391058 0.6140496 0.4960296 0.4497938
0.6324524 0.81408215 0.62000906 0.8002952 0.9170346 0.71178025 0.5381881 0.41227013

encoder.4.weight f4 [64, 128]
00000000: 3238 073e e54a 10be 3448 e83b 62ef 223e
00000010: aa22 dbbd 0aea a4bd ba8a 93bd 7647 e3bb
00000020: 74a3 393d a201 643d f487 9dbd 474f ddbd
00000030: 6001 b73d f223 b23d bcab 963d abd5 de3d
00000040: 51ad 4fbd 9289 043e c9cf d93d 1081 023e
00000050: d348 d63d 6ec5 203d 7bc3 a7bc 5d45 82bd
00000060: 7cf4 8b3d b645 9ebd be2c 753b ce76 a83a
00000070: 8845 893d 2b9d 563c a487 f33d b734 00bd
00000080: aaa2 99bc 59ff 143e 3618 ef3d 51a7 e33c
00000090: 0f74 c4bc 8621 d1bc 08bd b93b db25 c73d
000000a0: f168 10be f8ed 963c 0f64 c8bd 4923 4dbd
000000b0: 4dac c13d a17f d03d 85e4 8c3d 302e 5cbd
000000c0: ad3b 6a3d 4b76 b1bd f1a4 593d 655c 0ebe
000000d0: b231 b3bd 5aa3 3dbd 5982 3e3e 375e 963c
000000e0: 0fc2 8a3d e0fc adbc 579f a7bc 06b6 3bbe
000000f0: c222 a8bd 6256 a7bc 69bd 043c 7970 de3c
00000100: 1087 d83b 4d88 b63c bedc 1f3d 1b21 0fbe
00000110: 550a 913d 983e f53d 6af0 133d 1674 d83b
00000120: a6ff fabc de91 163d 1b0b fa3d 73d3 743d
00000130: bfe2 b23d f8d5 98bc c367 223e 1533 ba3c
00000140: b998 a93d 18fa 0d3d eb12 f43d 0e84 353c
00000150: 4722 c5bb 36bd 923d 2dd2 ba3d 607d b83d
00000160: 7c41 84bb a27f 153e 342e cebb bc07 a3bc
00000170: f60e 36be e36e 70be a809 223e 6587 d13d
00000180: d24e 9cbd 0b7e a0bd add6 99bd dafe 183d
00000190: cb97 8a3d 3c66 96bd b5c6 b53d 4881 bbbd
000001a0: f4e7 acbd 0e1f a8bd bbd3 9cbd 060f 913d
000001b0: b7f3 6fbc fd99 27bc 397c 013e a4d1 76be
000001c0: 2832 203d 50f5 af3d bb1b cbbb 7978 e5bd
000001d0: 9870 16be dd06 cebc 6adc 89bc 07aa 023c
000001e0: 14b3 febd 0442 cf3d e8c7 193c a899 b53d
000001f0: f567 6bbe 239c 193d fc40 10be 4e43 103c
00000200: db34 173d cb24 d1bd c55f 313d d6f4 973d
00000210: d826 363d 38b9 713c 4ce8 babd eefa 6abb
00000220: b80d 183e efcf 243c 2318 d6bd 8e5d c6bd
00000230: 56a7 e33c 4b39 afbc 91f9 84be 5e56 87bb
00000240: af83 55bd 2973 123e ed7b 6e3d 44bc d8bb
00000250: 5bc5 123d 47b2 26be f6af 06be 6862 66bc
00000260: dba4 0bbd 23a8 0abd bbce 1f3e f174 89bd
00000270: 1a1b 313e f19c 8b3d 7656 babd 9b97 3ebd
00000280: 1a04 92bd 14d6 54b9 018b 18bb a86a c5bd
00000290: 1c45 d9bd c659 833c 8981 cf3d d24d 93bc
000002a0: 5224 5abd c106 7c3c 1cf7 e6bc fa89 053e
000002b0: 3ab0 2a3e 61e3 673b 8743 0bbe ab6d 833d
000002c0: 7790 843d aa57 1c3c 5024 89bd 9c31 8a3d
000002d0: da7e d53d b579 a4bc 5606 f4bd 26ee e03c
000002e0: 5cad 133e be80 2a3d 7714 bb3c b16d 863d
000002f0: 5649 eabd 78d9 4d3c 65f6 523d 6248 a9bd
00000300: 2477 743a 7cf4 cb3d ef16 3ebe 4a27 e3bc
00000310: 3a19 e83c 608f 5f3d f8fe bfbd d0d9 8ebc
00000320: fb00 dabb dff9 f5bb 72b5 133e 873c 81bc
00000330: 4466 d9bd 20b8 e7ba e3c7 7d3d 6297 8f3d
00000340: 7c5d 023d 10af fabd 6f92 9cbc 7500 fcbd
00000350: 0ac9 6bbd 2f91 56bd 546e b13c 9cf6 21bd
00000360: 1164 c63d 174a 2b3d 590b 1b3e a596 313d
00000370: 230c 5abe 35ea 083d 9a71 ec3c 7db3 9cbd
00000380: 8a55 0f3c 1cd5 f93d 4ee5 203d c8b5 99bc
00000390: 01dc 36be 6f9f 9f3d aec6 d13c 70d0 193d
000003a0: 69e8 adbd 3159 a73b 9a91 a1bd c32b 5cbd
000003b0: e4f6 95bc 6c4d 9abd fc38 183d 1eb9 a5bd
000003c0: c935 91bc b0f8 1dbe 9a65 5cbe 0b12 c03d
000003d0: b702 50bd 7405 7ebd a7e1 d8bc 695f 18bd
000003e0: fa41 a43d 186e e1bc 02d2 29bd 474f 1b3d
000003f0: 4cf6 febd 9eff 3d3d 4bd7 8cbd 352f 6a3c
0.1320503 -0.1409107 0.0070886854 0.1591163 -0.10699971 -0.08052452 -0.07204194 -0.006936009
0.045321897 0.05566562 -0.076919466 -0.108061366 0.08935809 0.08698262 0.073569745 0.10880598
-0.050702397 0.12943104 0.10635335 0.12744546 0.10463109 0.039250784 -0.020478955 -0.06360886
0.06833741 -0.0772814 0.0037410702 0.0012852789 0.06702715 0.013098995 0.11891106 -0.031300273
-0.018754322 0.14550532 0.1167454 0.027789744 -0.023981122 -0.02552868 0.0056682862 0.09724017
-0.14102532 0.01842402 -0.0978471 -0.05008248 0.09456692 0.10180593 0.06879524 -0.053754985
0.057185818 -0.08665141 0.053135816 -0.13902433 -0.08749713 -0.046298362 0.18604411 0.018355472
0.06775295 -0.021238744 -0.020461721 -0.18331155 -0.082097545 -0.020426933 0.0081017995 0.02715324
0.0066078976 0.02228179 0.039028876 -0.13977472 0.07082049 0.119748294 0.03611795 0.0066056354
-0.03063948 0.036760204 0.122091495 0.059771966 0.08734655 -0.018656716 0.15859894 0.022729436
0.08281083 0.034662336 0.11917671 0.011078848 -0.006016049 0.07164995 0.09122119 0.090082884
-0.0040361267 0.1459947 -0.006292129 -0.019901149 -0.17779145 -0.234798 0.15823996 0.102309026
-0.07632221 -0.07836541 -0.07511649 0.03735242 0.067672335 -0.073437184 0.08875791 -0.09155518
-0.08442679 -0.08209048 -0.07657572 0.070829436 -0.0146455085 -0.010229585 0.12645043 -0.24103409
0.039110333 0.085917115 -0.006198374 -0.11204619 -0.14691389 -0.025149757 -0.016828734 0.007975108
-0.124365 0.10120013 0.00938604 0.08867198 -0.22988875 0.03750242 -0.1408729 0.008805109
0.03691564 -0.10212096 0.043304224 0.074197456 0.044470638 0.014753632 -0.09126338 -0.0035855132
0.14848983 0.010059341 -0.104538225 -0.09685813 0.027789753 -0.021389624 -0.25971654 -0.004130169
-0.052127536 0.14301743 0.058223654 -0.00661424 0.035832744 -0.16278945 -0.13153061 -0.014061548
-0.034092765 -0.033851754 0.15606205 -0.06711758 0.17295495 0.068170436 -0.09098522 -0.0465313
-0.071296886 -0.00020297646 -0.0023276212 -0.09639484 -0.10608885 0.016034018 0.10132129 -0.017981444
-0.053257294 0.01538247 -0.028194003 0.13040915 0.16668788 0.003538333 -0.13599978 0.06417402
0.06472867 0.009542385 -0.06696379 0.067477435 0.10424586 -0.020077566 -0.11915271 0.027457308
0.144216 0.041626684 0.022836907 0.06563891 -0.11439769 0.012564056 0.05150451 -0.08265759
0.00093256147 0.09958741 -0.18563436 -0.027728695 0.028332341 0.054580092 -0.09374803 -0.017437845
-0.006652949 -0.0075065936 0.14424685 -0.015775932 -0.10615209 -0.0017678775 0.061958205 0.07011296
0.031827435 -0.12240422 -0.019112794 -0.12304775 -0.057564773 -0.05238455 0.021659054 -0.039541826
0.09687055 0.041818704 0.15141048 0.043356556 -0.21293692 0.033426482 0.028862763 -0.07651422
0.008748421 0.121988505 0.039281182 -0.018763438 -0.17857362 0.077940814 0.025607433 0.037552297
-0.08491594 0.005107068 -0.078890994 -0.053752672 -0.018306203 -0.07534298 0.03716372 -0.08091949
-0.017725842 -0.15426898 -0.21523133 0.093784414 -0.05078384 -0.06201692 -0.026474787 -0.037200365
0.080203965 -0.027518317 -0.041460045 0.0379174 -0.12449321 0.046386354 -0.068770014 0.014293482

encoder.4.bias f4 [64]
00000000: afaa 47b5 40e5 1835 11ef 8bb5 60d3 cc34
00000010: 8782 0c36 3fb1 0e36 dbd0 f836 8f8f 88b5
00000020: 294c d835 6245 3e36 54f2 cb35 10f9 63b4
00000030: a0ea 22b6 6c92 bfb4 5850 9336 5285 b236
00000040: 147d 38b6 e281 5b37 28c4 3fb5 a283 0e36
00000050: 6716 bb35 f789 8eb6 d829 4c33 26f1 1535
00000060: cef0 afb6 fa84 d0b6 8b08 68b5 9f5d 0836
00000070: 62e5 0c36 31e3 2a35 9236 28b6 aa54 05b5
00000080: aed0 0d36 ebca 1f35 5c87 d2b5 5e67 2b34
00000090: b232 94b6 3e4e 08b6 fac1 70b6 a1fe 1835
000000a0: 5ddf 8535 4027 cf34 a53f 0d36 c6fc 8bb5
000000b0: 4cd1 0a35 518e cdb5 6065 0736 7d97 2836
000000c0: 100a 86b5 ed7c a935 a49f b6b4 08ba 8536
000000d0: 0e19 dfb5 2826 1fb6 c46d b935 0c8c 0bb5
000000e0: dec2 e135 2761 f9b4 a8c1 c9b4 3adb 53b5
000000f0: caec 0037 8630 9d34 e4df c635 fe14 14b5
-7.4381654e-07 5.6958015e-07 -1.0425885e-06 3.8151757e-07 2.0937603e-06 2.126282e-06 7.41529e-06 -1.0174571e-06
1.611542e-06 2.8352592e-06 1.5195205e-06 -2.1231631e-07 -2.427645e-06 -3.5683058e-07 4.3902946e-06 5.320334e-06
-2.7490942e-06 1.3083658e-05 -7.143849e-07 2.123627e-06 1.3939106e-06 -4.247991e-06 4.7535508e-08 5.585774e-07
-5.24344e-06 -6.2143636e-06 -8.6439167e-07 2.0320074e-06 2.0995144e-06 6.366054e-07 -2.5065715e-06 -4.9669563e-07
2.1132105e-06 5.95274e-07 -1.5685614e-06 1.5963221e-07 -4.4166454e-06 -2.0311122e-06 -3.5875696e-06 5.6994946e-07
9.97428e-07 3.8585313e-07 2.1047683e-06 -1.0429874e-06 5.1713573e-07 -1.531511e-06 2.0175576e-06 2.5122129e-06
-9.986707e-07 1.2627839e-06 -3.4016296e-07 3.9853658e-06 -1.6622087e-06 -2.3715056e-06 1.381552e-06 -5.198533e-07
1.682052e-06 -4.6450552e-07 -3.758007e-07 -7.892264e-07 7.684526e-06 2.9278834e-07 1.481731e-06 -5.5164844e-07

encoder.5.weight f4 [64]
00000000: fe04 533f 6f21 613f b0af 613f 0236 5e3f
00000010: 5f66 583f f1b9 613f a1c2 713f 957f 4f3f
00000020: 57f9 623f 26b9 583f e653 5f3f 0b5d 6a3f
00000030: 8dd3 5d3f dcd5 4c3f 05dd 613f c8cf 643f
00000040: 9b33 633f 0688 673f 4c50 5c3f ebee 613f
00000050: 3eba 663f d48e 5a3f d4c2 543f e68e 733f
00000060: aabb 5c3f abfd 5e3f 8950 523f f912 613f
00000070: d340 5d3f 8bbf 533f 2479 583f 9691 553f
00000080: 10ac 5c3f 85f7 6c3f b9d2 5b3f cea3 613f
00000090: d3e3 6d3f 1cb1 673f 63c5 623f 5c79 5e3f
000000a0: 7362 623f 985b 633f b8b2 603f 93bc 5f3f
000000b0: 1d16 573f 47f6 733f dd97 613f 9c73 513f
000000c0: dbfc 4e3f ae22 5c3f 9fbd 463f 9a1a 503f
000000d0: f9ea 6c3f cdd1 613f 461c 5d3f daef 5b3f
000000e0: 014f 5b3f 54fb 663f 8b6f 5c3f 8a44 573f
000000f0: 0988 5f3f febb 5f3f 3c96 593f 02dc 643f
0.8242949 0.8794164 0.881587 0.8680116 0.84531206 0.8817435 0.94437605 0.8105405
0.8866171 0.84657514 0.87237394 0.9154822 0.86650926 0.80013824 0.88227874 0.8937955
0.8875062 0.9044193 0.86060023 0.88255185 0.90127933 0.8537419 0.83109784 0.9513992
0.8622385 0.87105817 0.82154137 0.87919575 0.8642704 0.82714146 0.84559846 0.8342527
0.86200047 0.92565185 0.8586841 0.8814057 0.9292576 0.9050462 0.8858244 0.8690393
0.8843147 0.88811636 0.87772703 0.87397116 0.8401812 0.95297664 0.8812235 0.8181703
0.80854577 0.85990417 0.7763309 0.8129059 0.9254604 0.88210756 0.86371267 0.8591286
0.85667425 0.90227246 0.861077 0.8408896 0.8731695 0.8739623 0.84994864 0.89398205

encoder.5.bias f4 [64]
00000000: 08e5 623e bdfb dd3d c6fc 0b3e 20e2 093e
00000010: 9164 0b3e ab4c 463e a87d bf3d 288b 8c3e
00000020: 6b21 c63d da73 f23d 14de bd3d 165d fc3d
00000030: dc4c c53d 2ac8 0a3e eeb1 253c 7d21 3d3e
00000040: 44d0 183e baf9 a63d 5592 4e3e aac2 3c3e
00000050: 3881 003d 96a4 3d3e 9551 543e a4e1 3e3d
00000060: c82e db3d 7f1b 8c3d 321e a03d b5d2 ff3d
00000070: ccae 4f3e fd49 9a3d 49ae 113e d760 533e
00000080: 7dc7 f23d d99f 133e 7faf d13d d48f ed3d
00000090: e42f 763d 31e7 2a3e ddf4 3d3e 9e77 463e
000000a0: a110 603e e17a 073e cc4f 523e d16a 383e
000000b0: 003a bfbc b4d7 0c3e 85ef 3f3e 9b5f 563e
000000c0: b1eb 343e 1f98 493d de1e ec3d 3f19 983e
000000d0: e597 433e 4ccf b33d 75cf 573e 0b07 3e3e
000000e0: a18f 6b3d c465 4f3e cd74 2f3e 7f75 e23d
000000f0: 582b 373e 8607 263e 6ce7 cb3d 5f9a d43d
0.22157681 0.10839031 0.13670644 0.13465166 0.13612582 0.19365184 0.09350139 0.27449918
0.09674343 0.11838503 0.09270874 0.12322442 0.096338004 0.13552919 0.0101132225 0.18469806
0.14923197 0.081531 0.20173009 0.18433633 0.031373233 0.18519816 0.20734246 0.046601906
0.10702282 0.06841182 0.07818259 0.12491361 0.20281523 0.075336434 0.14226641 0.2064241
0.118544556 0.14416446 0.10238551 0.11599699 0.060104266 0.16689755 0.18550439 0.19381568
0.21881343 0.13230468 0.20538253 0.18009497 -0.023343086 0.13754159 0.18743713 0.20934908
0.17668034 0.04921734 0.11529325 0.2970676 0.19100912 0.08779773 0.21075232 0.18557374
0.057510022 0.20253664 0.171344 0.11057567 0.17887628 0.16213807 0.099562496 0.103810064

encoder.5.running_mean f4 [64]
00000000: 4f75 8c3e 1878 afbe b3a2 d63e 9f4a 96be
00000010: 0e40 ba3c 7c47 433e 9880 5b3e d4b4 a53d
00000020: 2e71 7b3e cafd 9fbe df6c a53e 463f 8d3e
00000030: 08ad 6d3e f019 643e 6b5b c53e ef46 7a3e
00000040: a14e cabd c874 843f 64ad 143f 051a d33d
00000050: 5ead 44be 4bb8 4cbe 4189 d7bd d11b f03e
00000060: 743f f93e a4ae ab3e c1b6 93bc 0796 9e3d
00000070: 53f2 513e 7a30 133d e9af 62be ed51 253d
00000080: 9620 db3e 30b1 c23e 2a38 563e f173 153e
00000090: 4fe7 90be 8e24 a13e 2426 463d 4cfa 113e
000000a0: 7ef6 983e 7fdc d23d 89bd 38be a484 113e
000000b0: 9866 163d 939a 883e 98b2 a53d fb52 553f
000000c0: 6a10 4e3d b3c4 e0bd ca3c 173e d1c8 1c3f
000000d0: 42f8 86be e208 a93d 2b23 583c 8c49 f1be
000000e0: a64d 983e 3ec7 a3bc 454e ca3e 50ab 193f
000000f0: 0d81 833e 77e5 3bbe a57e cabd d465 c2bd
0.2743325 -0.34271312 0.41921005 -0.29353806 0.022735622 0.19070238 0.21435773 0.08091131
0.24554893 -0.31248313 0.32309625 0.27587336 0.23210537 0.2227552 0.3854631 0.24441122
-0.098782785 1.0348139 0.58077073 0.10307697 -0.1920676 -0.19992177 -0.10524226 0.46896222
0.48681223 0.33531678 -0.01803148 0.07743459 0.20502596 0.035934903 -0.22137417 0.040361334
0.427983 0.38025808 0.20919862 0.1459501 -0.28301474 0.31473202 0.048376217 0.14255637
0.2987556 0.102959625 -0.18041052 0.14210755 0.036718935 0.2668043 0.08090705 0.83329743
0.050308622 -0.109750174 0.14769283 0.6124392 -0.2636128 0.082536474 0.013191978 -0.47126424
0.2974674 -0.019992467 0.3951284 0.6002703 0.25684395 -0.18349253 -0.09887437 -0.094920784

encoder.5.running_var f4 [64]
00000000: bcff 8f3f 2959 853f bc63 6a3f fbd0 433f
00000010: 2e5d 583f 1ce9 323f 9e66 5a3f 3b45 2d3f
00000020: 641f 9b3f b22b 8e3f aff4 5e3f ef20 673f
00000030: 0f80 5e3f 162f 513f a907 9a3f 4c32 523f
00000040: 0731 333f 2ea3 913f 9108 513f 7b81 353f
00000050: 4ef8 753f 60e5 453f d507 343f c5d8 d33f
00000060: e922 893f 7f7a 463f 606c 843f 3871 8c3f
00000070: 112c 4f3f 7dac bb3f 2f17 2b3f 13c3 793f
00000080: f60e 933f 0081 7a3f 649e 893f e3c5 733f
00000090: f00d 9d3f dba3 833f ba51 543f 9284 583f
000000a0: 7c91 583f ca11 863f 58ad 513f ac7b 813f
000000b0: 1727 b13f a410 c03f 31aa 953f bce6 523f
000000c0: a87b 433f 96d3 6f3f 61ee 5b3f e766 353f
000000d0: b72b 783f 8bc4 783f f9f3 553f daab 363f
000000e0: ea9e 983f f678 5f3f b7f4 623f 8d4c 803f
000000f0: 75da 523f 77a0 633f 4426 9e3f 8796 4f3f
1.1249919 1.0417835 0.9155843 0.76490754 0.8451718 0.69886947 0.8531283 0.6768376
1.2118955 1.1107085 0.8709211 0.9028463 0.8691415 0.8171247 1.2033588 0.82107997
0.69996685 1.1377923 0.81653696 0.70900697 0.9608201 0.77303123 0.7032445 1.6550528
1.0713779 0.77530664 1.0345573 1.0972052 0.80926615 1.4662014 0.6683225 0.97563285
1.1488941 0.9785309 1.0751462 0.95223826 1.2269878 1.028438 0.82937205 0.84577286
0.8459699 1.0474179 0.81905127 1.0115867 1.3840054 1.5005078 1.1692563 0.8238332
0.7636056 0.9368223 0.8591061 0.7086014 0.96941704 0.971749 0.835754 0.71355975
1.1923497 0.87293947 0.88654655 1.0023361 0.8236459 0.88916725 1.2355428 0.8108906

encoder.8.weight f4 [64, 64]
00000000: 01a9 74be 4c8c 4abe 35a5 c3bd 6d8b 3e3d
00000010: fa5b 8b3d b7d2 e13d 40f6 17bb ea9c 003e
00000020: 628c 663c 4821 b43d 834c 063e 2b53 a6bc
00000030: fb55 5e3e 04c7 da3b 1213 ae3d dd9d 13bd
00000040: f94a 693d 0212 25bd 8064 153e 6980 823d
00000050: 5a1f cdbd 72f8 63bd cd25 63be 6bec e5bd
00000060: b129 133e cf14 9ebd 3202 b6bd 7655 043c
00000070: 6e1b 6dbd fe44 65bc 9843 3bbc 47aa ba3d
00000080: 8d6d d53c ce32 f1bd f769 aabc 1306 bbbd
00000090: 1ceb 153e f9d2 583d 8591 2ebd 8101 bb3d
000000a0: bc6e 8fbd ba97 fc3d 3fc5 963d 261f 0c3c
000000b0: 2c3d a1bd 0609 a13b 97b1 eebd be2e a2be
000000c0: 654e 76bd e6cf bc3c 8416 b9bd 5f70 72bd
000000d0: 19e3 103e f05c 1b3d 479a b53d a79a b23d
000000e0: 7ad7 8ebc 90a7 273c e2b5 033e c339 a33d
000000f0: 5c6c 3a3e b0cd 383d c501 fabd bee0 f03c
00000100: 2843 3fbe 7da4 64bd fc7c df3d 7ef2 cb3d
00000110: ae91 033d fa05 353e a232 08bd ef17 2c3d
00000120: aa46 353e c59a 433d 6bc0 9e3d e3ce 3abd
00000130: 6226 44bd 4827 003c 219e 3bbe 255a e33c
00000140: 2b14 be3c 61cb 083e 1fae 733d c22d 203e
00000150: 1f3c d63c af50 ab3c 16fe 8e3d 7062 93be
00000160: f939 83bd 54a7 d8bb 66ed 98bd b689 7fbe
00000170: ad70 6abd 0f7b eb3c 3433 f63d dd50 173d
00000180: dc0c af3d 1f21 abbc 48d0 083e c56f 3fbd
00000190: e439 afbd 88fa 6539 e50d 1b3d 9a30 ac3c
000001a0: 5ac3 cebd e164 5cbd 6778 213d 80a2 253e
000001b0: 0d68 86bd caf9 433e f1e2 60be 4167 1bbd
000001c0: c0f5 bf3c bf57 01be 6b58 91bd a77b 103d
000001d0: 93c7 0b3b 598f bc3d c361 59bd 80fd 0dbd
000001e0: 9575 f13d 3f4f ac3d 98a3 743d 86d0 04bd
000001f0: bfb0 483d 3098 283d 81f9 123e bbcc d33c
00000200: 65b4 9a3d 6e45 26be 7316 a1bd 3d2d b83d
00000210: 57d7 073e eb35 cbbd 4a5e c73d 4b30 93bd
00000220: 6200 593d 24d6 bc3c 03d8 93bd 7582 31be
00000230: db46 a73d d4dc cebb b637 5bbe 9969 bd3d
00000240: f8a7 d1bd e1f5 21bd 0ab3 c83b 51f9 aa3d
00000250: b637 a0bd ff7c 92be e869 dcbc 0be8 8cbd
00000260: bf54 60bd ce47 b6bd 0509 2dbd 0c5f e43c
00000270: d5ec f6bd 20e1 8d3d 0095 b5bd 5387 ffbd
00000280: 353e 8cbd 176b f7bd 43ec ac3d 236a e7bd
00000290: c27c c23d 7236 b1bd 6461 173e be89 103e
000002a0: c965 48be ac1f 473d a49c 7dbd 9d77 5ebb
000002b0: bf12 953d 7409 9c3d 0b47 59be 2aa1 a4bd
000002c0: 00f5 62bd 0d1c 6bbd 9863 6c3d e7e6 e7bc
000002d0: 46be 8ebb 4bec f33c 2ee9 883d 8e30 cebd
000002e0: 2c20 233e d398 a1bd c20d 54bd c4d5 78be
000002f0: 99b6 bdbd 7ea6 48be e96f ea3d 0bca 7bbe
00000300: dcf6 42be 8686 3dbd a994 203c 0d67 84bd
00000310: 544e 29be 7b6a a03d 4818 1f3d 40ae dfbb
00000320: 3475 6ebd 6c70 8fbd b7cd 323e 788c 823d
00000330: 603d 1b3e e29b 0bbe f3f6 5c3c feaf 0ebe
00000340: ee0e 363e 69d2 37bb 4a5f 3dbe 57f8 9fbc
00000350: e01d 843d b762 5e3d 89a3 4cbd ad87 44be
00000360: 12db 763c 4b30 aebd b0e4 8abd 2b63 dabd
00000370: 6a66 afbd 6ef2 bd3b 91a8 96bd a16d 803d
00000380: fb3a 923d 42a4 613d 9091 f2bd 19ca 3abe
00000390: 5405 5cbd c381 463d 91f1 373e 2a8b 02be
000003a0: 450f 6dbb 5e9f c8bc c2f6 58bd e8f2 f63d
000003b0: 98d1 533e 0021 29bd 9f84 50be 47b5 14be
000003c0: 2300 3ebd 4b32 0ebd c296 b1ba 0866 04bd
000003d0: 376e b23b 8fee af3d 411b 5c3e d343 d0bd
000003e0: a56a 8cbd f716 ce3d 821b 48be 90ba 5c3d
000003f0: e2f1 7abd 6f15 b43d 98cd 9c3d 3b6a a83d
-0.23892595 -0.19780082 -0.09552995 0.046519686 0.068046525 0.11026519 -0.0023187548 0.12559858
0.014071556 0.087954104 0.13115124 -0.02030333 0.21712486 0.0066765565 0.08499731 -0.036039222
0.056956265 -0.040300377 0.14589119 0.063721485 -0.100157455 -0.055656858 -0.22182389 -0.11226734
0.14371373 -0.07718813 -0.088871375 0.008077016 -0.057887487 -0.0139935 -0.01142969 0.09114509
0.026053214 -0.11777268 -0.020802481 -0.09132018 0.14640468 0.052935574 -0.042619247 0.09131146
-0.07003543 0.12333627 0.073618405 0.008552348 -0.07872996 0.0049144058 -0.11654966 -0.31676286
-0.060133357 0.023048352 -0.09037498 -0.059189197 0.14149131 0.03793043 0.08867317 0.08720904
-0.017436732 0.010232821 0.12862352 0.079700015 0.18205398 0.045118034 -0.12207369 0.02940404
-0.18677962 -0.05582093 0.10912511 0.09958361 0.032121353 0.17678061 -0.033251412 0.042015012
0.17702737 0.04775502 0.077515446 -0.04560746 -0.047888167 0.007821865 -0.1832204 0.027752945
0.023202976 0.13358833 0.059492227 0.15642455 0.026151715 0.020912496 0.06982057 -0.2878604
-0.06407542 -0.006611744 -0.07467155 -0.24954876 -0.057236362 0.028745202 0.12021485 0.03694235
0.085473746 -0.020889817 0.13360703 -0.04673745 -0.08555964 0.00021932472 0.037855048 0.021019269
-0.10095854 -0.053807143 0.039421465 0.1617527 -0.06562815 0.19138256 -0.21961571 -0.037940267
0.023432612 -0.12631129 -0.070969425 0.035274174 0.0021328672 0.09207029 -0.05307175 -0.034665585
0.11790005 0.084135525 0.059726328 -0.032425426 0.048996683 0.041160762 0.1435299 0.025854459
0.07553939 -0.16237423 -0.0786561 0.089930035 0.1326574 -0.099223934 0.09734781 -0.071869455
0.05297888 0.023051329 -0.07218935 -0.17334922 0.081678115 -0.006312946 -0.21407971 0.09248657
-0.102371156 -0.03954113 0.0061248587 0.083483346 -0.07823126 -0.2861099 -0.026905969 -0.06880196
-0.05476832 -0.089004144 -0.04224493 0.027877353 -0.12056891 0.06927705 -0.0886631 -0.12476983
-0.068478025 -0.12080973 0.08443501 -0.11299541 0.09496452 -0.08652963 0.14783245 0.14115044
-0.19570078 0.04861419 -0.061916962 -0.0033945807 0.07278966 0.076189905 -0.21218507 -0.08038552
-0.05540943 -0.0573998 0.057712168 -0.028308345 -0.0043561785 0.02977576 0.066851005 -0.10067855
0.15930241 -0.07890477 -0.051770933 -0.24300295 -0.09263343 -0.19594762 0.114471264 -0.24588792
-0.19039482 -0.04627087 0.009801068 -0.06464968 -0.16533786 0.078328095 0.038841516 -0.006826192
-0.058217242 -0.07003865 0.17461286 0.063744485 0.15160131 -0.13633683 0.013486612 -0.13934323
0.17779133 -0.0028048998 -0.18493381 -0.019527597 0.06451011 0.05429336 -0.049960647 -0.19192381
0.015066879 -0.08505305 -0.067819 -0.10663446 -0.08564456 0.005796722 -0.0735637 0.0627091
0.07140156 0.05508829 -0.1184417 -0.18241157 -0.05371602 0.048463594 0.17963244 -0.127484
-0.0036172431 -0.024490055 -0.0529697 0.120580494 0.20685422 -0.041291237 -0.20363091 -0.14522277
-0.04638685 -0.03471593 -0.0013548958 -0.032323867 0.0054452675 0.08590423 0.21494772 -0.101691864
-0.06856278 0.10062974 -0.19541743 0.053888857 -0.061265834 0.08793151 0.076564014 0.08223387

encoder.8.bias f4 [64]
00000000: 8709 40b6 76ea 2a36 c40f 8d37 7a9b 5a36
00000010: bc48 1036 64cf 6035 9282 e135 10ff 73b2
00000020: 14ca a2b5 1ed3 0f36 7b47 b1b6 206d 23b3
00000030: 6de9 e0b5 03a3 9ab4 7b75 aeb5 78c2 1c34
00000040: 28a6 f836 1f66 22b6 2b42 1436 f04e 1236
00000050: 4c7b 9c35 f8cc 5eb6 d5d1 c8b6 b75d 1fb6
00000060: 70b0 1335 0009 8bb5 3c87 ff36 2a25 47b5
00000070: 7e94 5bb6 3aa6 66b6 c994 6a36 0c61 3bb6
00000080: f093 3934 5bd8 83b6 1ec5 2ab5 8a97 4835
00000090: 009d 9636 0694 9634 2a77 e0b6 664c 2bb6
000000a0: dab8 be35 9d3d e835 aaab d734 96fc b235
000000b0: 1437 9e35 fe15 9d35 b2fd e735 6915 b935
000000c0: 40c4 bab3 73e3 10b5 3c6f 60b6 c769 b5b5
000000d0: 2e4c 9234 75a9 5db7 de0e 08b6 40d1 8e32
000000e0: 9ad0 9f36 d481 aeb4 9a5d 3836 f87a b7b4
000000f0: 326c 8535 7474 5436 209e bc35 c658 cd35
-2.8615775e-06 2.5468448e-06 1.6815851e-05 3.257503e-06 2.150001e-06 8.3748296e-07 1.6801807e-06 -1.4202456e-08
-1.2128753e-06 2.1431547e-06 -5.2833325e-06 -3.8050644e-08 -1.6757236e-06 -2.8803342e-07 -1.2998202e-06 1.459938e-07
7.410319e-06 -2.4199323e-06 2.2092233e-06 2.1801643e-06 1.165879e-06 -3.3199885e-06 -5.984892e-06 -2.3747396e-06
5.501852e-07 -1.0358926e-06 7.6153356e-06 -7.418736e-07 -3.2719977e-06 -3.4369427e-06 3.4955322e-06 -2.792166e-06
1.7283287e-07 -3.9292913e-06 -6.361678e-07 7.4726324e-07 4.4886256e-06 2.8047378e-07 -6.6895927e-06 -2.5525455e-06
1.4209902e-06 1.7303279e-06 4.0171773e-07 1.3335546e-06 1.1787947e-06 1.1703812e-06 1.7284676e-06 1.3789805e-06
-8.6969976e-08 -5.397516e-07 -3.3443348e-06 -1.3516336e-06 2.7250047e-07 -1.3212081e-05 -2.0274233e-06 1.6626132e-08
4.7628537e-06 -3.2504488e-07 2.747262e-06 -3.4175878e-07 9.940761e-07 3.1658246e-06 1.4053112e-06 1.5299527e-06

encoder.9.weight f4 [64]
00000000: db2c 613f f1f0 623f e79c 593f 5523 353f
00000010: 9016 3f3f 9ed9 4d3f 9cc7 2b3f b0a9 5b3f
00000020: 878b 5c3f c82f 633f de0a 623f 4786 5b3f
00000030: a9dc 513f 5009 533f 6d95 463f 90b7 5c3f
00000040: 8452 433f 018b 513f 89a8 533f 9a06 3d3f
00000050: b6a0 643f eae4 4e3f 3cc0 613f f339 4e3f
00000060: 515b 4d3f 0ad4 573f 40ed 4b3f a52d 573f
00000070: 78bf 3d3f 9449 693f 4208 5f3f 48dc 563f
00000080: 7aa0 693f 5e3b 603f 8549 443f 8836 543f
00000090: 8f39 473f 8911 6d3f c362 5b3f b2c8 753f
000000a0: 3f3a 423f bc66 643f e634 4b3f f0bc 6a3f
000000b0: 21a7 5b3f 301b 473f f40b 643f 8d21 4b3f
000000c0: b28a 673f b93b 4e3f 6273 513f afbd 433f
000000d0: 0705 6a3f 5fad 4c3f 8deb 583f d82b 523f
000000e0: 542d 693f b00d 643f 866b 533f fe22 453f
000000f0: a817 743f fb01 533f d5a4 5a3f 3191 593f
0.8795907 0.886489 0.8500504 0.7075704 0.746438 0.8041018 0.67101455 0.858058
0.861504 0.88744783 0.8829783 0.85751766 0.81977326 0.82436085 0.77571756 0.86217594
0.76297784 0.8185273 0.8267904 0.738382 0.89307725 0.80818045 0.8818395 0.80557173
0.8021746 0.8430792 0.7965889 0.84054023 0.74120283 0.91127896 0.87121975 0.8392987
0.9126049 0.8759059 0.7667468 0.8289571 0.778222 0.9260488 0.85697573 0.9600936
0.75870126 0.8921926 0.7937759 0.91694546 0.85801893 0.7777586 0.8908074 0.7934807
0.9044601 0.8055988 0.81816685 0.7646131 0.9141392 0.79952043 0.8473442 0.8209815
0.9108479 0.89083385 0.8258594 0.7700652 0.95348597 0.82424897 0.85407764 0.8498717

encoder.9.bias f4 [64]
00000000: e278 9c3e 0523 383e 6606 6b3e a6b9 fa3e
00000010: aac1 093f 210f 463e bea6 ef3e fc59 083e
00000020: b364 813e 879b 7e3e a18b 963e 5a7d 573e
00000030: 06d1 933e 7f94 f03e 0349 8abc 5e82 7d3e
00000040: fc57 3c3e 090c 913e 3154 0d3e 8b29 453e
00000050: e8f1 ae3e 0b69 dd3e a633 d43d 6d8b ac3e
00000060: 3a87 3c3d 5e40 bd3e dbfe a13e 2d00 fe3d
00000070: a3b4 4e3e 14c3 433e 81d4 6a3e 35d3 773e
00000080: 135b 323e 17d6 013e 4f56 833e d169 a53e
00000090: 45f1 fc3e 864a 193e 4d2f 123f 7e27 4d3e
000000a0: 4d95 f5bd 8c4d a73e 0795 483e 1d00 853e
000000b0: 3af4 493e 3e1f a43d 0cbb c03e 23da ed3e
000000c0: 9d03 843e 3975 6b3e 7d3f 003e f0b6 d93e
000000d0: a586 d63c 486c cf3e 2db5 bc3e 958c df3d
000000e0: 4a2b 653e 48cc 5d3e ff7b e33d c8cc 1c3f
000000f0: 5660 083e afea 993e 02f7 073e 60be 273e
0.30560976 0.17982109 0.2295166 0.48969764 0.5381113 0.19341709 0.46806902 0.13315576
0.2527214 0.24864016 0.29403403 0.21043912 0.2887041 0.46988294 -0.016880518 0.24756762
0.18392938 0.28329495 0.13801648 0.19254129 0.34168935 0.43244204 0.10361414 0.33700123
0.0460274 0.3696317 0.31639752 0.12402377 0.20186095 0.19117385 0.22932626 0.24201663
0.17417555 0.12679325 0.25651786 0.32307294 0.49402824 0.14969835 0.57103425 0.20034596
-0.119913675 0.3267635 0.195881 0.2597665 0.19722071 0.080137715 0.37642705 0.46455488
0.25784007 0.22993936 0.12524219 0.42522383 0.02618725 0.405123 0.36856976 0.10915486
0.22379795 0.21659958 0.11107635 0.6124997 0.13317999 0.30061862 0.1327782 0.16381216

encoder.9.running_mean f4 [64]
00000000: c614 a33d 3571 833e 61e0 61bf a931 e1be
00000010: df63 d3bd d621 3fbd c90f 0bbf 2d86 9dbd
00000020: bfcc 17be abf1 bd3e 46b2 5bbe 5745 f0be
00000030: 9ab1 82be 418c 1dbe d354 f33e daff debe
00000040: c177 9f3c dbb3 263f b601 fa3e 39a6 3a3e
00000050: fef7 98be 519a c9be 9d59 933e 7e07 9a3d
00000060: c7c2 44bd 6b36 2ebe 9fad a43d 0cce 1e3e
00000070: e1ca 533d 19c8 5dbe cdf7 b7bd 3b1a 0a3e
00000080: 9394 103f 5018 28be fc87 3dbe 24b6 953d
00000090: 15a0 febd e7b8 10bf 80cd 383e 6219 8c3e
000000a0: 12b5 ebbe 7381 683d 807a 0fbe 72d7 253d
000000b0: 6940 483e d0d6 f3be 6e53 1c3e 4a3f eebd
000000c0: 334b a93e 4d0d bfbd 8f30 b4be ed0c 9a3d
000000d0: e07d 0c3f 8b78 9c3c 5e73 10bd 5891 453e
000000e0: f08f 66be 9682 82be 6c7d 8a3e 3f1a 11be
000000f0: e343 e4bb a46e d7bb 568b 85be e7bc 583e
0.079629466 0.25672308 -0.88233 -0.439832 -0.10321783 -0.046663128 -0.5432096 -0.076916076
-0.14824198 0.3709844 -0.21454725 -0.46927902 -0.25526124 -0.15385534 0.47525653 -0.43554574
0.019466283 0.6511819 0.4882943 0.18227471 -0.29876703 -0.39375547 0.28779307 0.0752096
-0.048037317 -0.17012946 0.08040928 0.15508288 0.051707152 -0.21658362 -0.08982811 0.13486569
0.56476706 -0.16415524 -0.18508905 0.07310131 -0.12432877 -0.5653214 0.18047142 0.27363116
-0.46036583 0.056764077 -0.14011574 0.040488668 0.1955582 -0.47624826 0.15266201 -0.11633165
0.33065185 -0.09328709 -0.35193297 0.07521997 0.5487957 0.019100448 -0.035266273 0.19293725
-0.22515845 -0.25490254 0.27048814 -0.14170168 -0.0069661005 -0.0065744687 -0.26082867 0.2116581

encoder.9.running_var f4 [64]
00000000: ffbf 4d3f f66a 763f 9eb4 2b3f 599a 113f
00000010: 0a49 f93e cf51 0f3f 58e1 ef3e 8036 2a3f
00000020: 3fab 2d3f b8b1 6d3f 9ff7 0c3f 5ff8 243f
00000030: 168c 153f 998e 213f e335 f13e b0fd 1d3f
00000040: b180 de3e 9fc8 213f e3b0 063f 1dd1 093f
00000050: 5763 623f 09b8 183f 38bf 003f fc3d 1d3f
00000060: 0048 0e3f d4d8 003f c91e 2f3f 6f44 153f
00000070: 5f28 193f 5cec 123f 8c81 173f 165a 0f3f
00000080: b2db 543f 7d19 253f 3358 003f 1ecb 093f
00000090: e64b fb3e f1f9 713f 74c6 133f c2af 283f
000000a0: 46af 853e 7b64 0b3f ecff 013f 93d6 533f
000000b0: 92da 213f 9627 ff3e 248f 433f 9bf1 ff3e
000000c0: 45fc 1d3f b78e 1e3f b920 3e3f 16cb 003f
000000d0: fe0d 773f 099d cd3e 67d2 2d3f 3345 4a3f
000000e0: 2482 843f 1845 273f 4545 213f cf09 d83e
000000f0: f3f9 583f b562 143f 339b 2d3f 5943 063f
0.8037109 0.9625696 0.67072475 0.5687614 0.48688537 0.55984205 0.4685161 0.6648941
0.67839426 0.928493 0.5506534 0.64441484 0.5841688 0.6310821 0.47111425 0.6171522
0.4345756 0.6319675 0.5261366 0.53834707 0.8843283 0.59655815 0.50291777 0.61422706
0.55578613 0.50330853 0.6840635 0.58307546 0.59827226 0.57391906 0.5918205 0.55996835
0.8314773 0.6449202 0.5013458 0.5382556 0.49081343 0.94522005 0.5772469 0.65893185
0.26110286 0.54450196 0.5078113 0.8274929 0.63224137 0.4983489 0.7639029 0.49989018
0.6171306 0.61936516 0.7426868 0.50309885 0.96505725 0.4015887 0.67899173 0.7901184
1.0352216 0.65339804 0.6299632 0.42194983 0.8475639 0.57963115 0.6781494 0.52446514
