BusinessCase2_Group13/Results&Optuna/best_model_AccumulationInvestment.pt (torch, 50575 bytes, 19 tensors)

model.0.weight f4 [96, 7]
000000 89 4c 4d bd 44 73 5a 3c ee c1 b6 bd d7 20 36 bd
       -0.050121818 0.0133331455 -0.08923708 -0.044464912
000010 15 91 1b 3d 8e 1b 11 bf 35 f2 10 bf 8d b9 31 3e
       0.037980158 -0.5668267 -0.5661958 0.17355938
000020 5a 5c 4a 3e d2 f5 20 be 18 27 38 3e 74 af 4e bb
       0.19761792 -0.15718773 0.17983663 -0.0031537684
000030 78 0b 8f 3e 91 d2 ea be 7f 89 20 3f a6 a4 0a 3d
       0.27938437 -0.45863774 0.627098 0.033848427
000040 0d a4 7d bc f5 e5 42 bd 9b fc a8 3e 6d 98 d3 3e
       -0.015481007 -0.047582585 0.33005223 0.4132723
000050 83 31 6a be fb f3 b2 3e 4a c3 c0 bd 39 1d 79 3d
       -0.2287045 0.34951767 -0.094122484 0.060818885
000060 29 4d 96 be 57 01 95 3e 11 39 a9 3e 97 33 3d 3d
       -0.29355744 0.29102585 0.3305135 0.046191778
000070 29 5b 84 be 8b 1f ca bd ac 89 97 3d 22 61 e3 3e
       -0.258508 -0.098692976 0.07399306 0.44410044
000080 56 82 1a 3e b3 60 e1 3e 72 74 a7 3e 13 8f 39 3d
       0.15088782 0.44019088 0.32706028 0.04530246
000090 ff 01 42 3d 35 3d f2 bb 5a 78 47 be 78 44 8b 3e
       0.047365185 -0.0073925504 -0.19479504 0.27200675
0000a0 a2 85 ab 3e 89 cf 20 3e 38 34 85 bd ef d8 44 3d
       0.3350039 0.15704168 -0.065041006 0.048058446
0000b0 3e 91 3b 3d d5 70 a0 3c 1b e6 ef bd c4 20 58 3f
       0.04579281 0.019585053 -0.11713811 0.84424996
0000c0 d7 bf 9b be 9d 68 ee bd 14 a2 3a 3d a2 0b c2 be
       -0.304198 -0.11641047 0.045564726 -0.378995
0000d0 c4 9b 2b be f6 8e 79 3e 16 e1 ec 3e 9f f7 c2 3e
       -0.16758639 0.24370942 0.46265477 0.38079545
0000e0 df ec 78 be 7c b8 86 3e db 9d 78 3e fd 48 d5 3e
       -0.24309109 0.26312625 0.24278967 0.41657248
0000f0 96 9e b8 3d 9d eb 2f be da 08 5c 3d 9c ba 1e be
       0.09014623 -0.17179723 0.05371938 -0.15500873
000100 5e a0 aa 3c 0e d9 11 be 74 8f fe 3e cc 6a 94 bd
       0.020828422 -0.14242956 0.4971882 -0.072469324
000110 73 3d d2 be 76 09 ef 3c ea 54 c7 3e 56 d9 39 3e
       -0.41062507 0.029179316 0.38931972 0.18149313
000120 7f 6c 93 3b 4c d6 4e 3e 6d 21 8c 3d 66 e4 4a 3e
       0.0044990177 0.20198935 0.06842313 0.1981369
000130 fe e7 ca be 7e c9 a7 3d b8 d8 cc 3d a4 4e 85 3d
       -0.3963012 0.081927285 0.10002273 0.0650914
000140 21 d8 71 3d 6e 5c 28 3d 0f 9a 13 bf 20 83 1b bf
       0.059044007 0.041103773 -0.5765695 -0.60746956
000150 66 0e bf bd 22 0c f0 3b 21 f9 fe bd 84 73 9c bd
       -0.09328918 0.007325665 -0.12449861 -0.0763922
000160 94 9e 5c 3c 66 66 26 3f 88 8c e3 be 29 b6 ee 3e
       0.013465542 0.65 -0.44443154 0.46623352
000170 26 7c 4e 3e 98 b4 d7 bd de dc 3b be 23 05 c6 3e
       0.20164546 -0.105324924 -0.18345973 0.38675794
000180 5a 8d f4 3d 5d 89 ab be b3 ca fa 3e 51 4e a3 3d
       0.11941023 -0.33503237 0.48982772 0.07973922
000190 b9 28 0a be 0e 93 b2 3e b8 6e 3a be 1e 13 cf bd
       -0.13492097 0.3487782 -0.18206298 -0.10111068
0001a0 7d c1 86 3e d7 72 19 3f 40 f7 06 3e b8 d2 bc bc
       0.26319495 0.59940857 0.13180256 -0.023049697
0001b0 47 04 29 3e d8 d9 2a 3e f4 9b eb 3e 6d 12 77 bd
       0.16505538 0.16684663 0.4601742 -0.060320307
0001c0 c7 ce a5 3d 77 e1 38 3e 2f a5 af 3d e3 89 05 3f
       0.0809608 0.18054758 0.08576428 0.52163523
0001d0 cb de e1 3d 31 7b 0b bf 38 91 ac 3e 87 d0 2d bd
       0.110288225 -0.5448485 0.33704543 -0.042435195
0001e0 08 bf e6 be 6d aa 82 3e 92 5c cf 3b 70 f1 ca 3c
       -0.4506762 0.2552065 0.006328174 0.02477333
0001f0 d8 40 02 3e 1e 9d 5b 3d 6c dc 95 be d2 be 34 3e
       0.12720048 0.053616636 -0.2926973 0.17650917
000200 17 b9 48 bd 8e ce 2e be e1 d5 38 3e 30 f8 25 3f
       -0.04900464 -0.17070982 0.18050338 0.6483183
000210 7b 7c d4 3e f0 1b 4e 3e ec ed 81 bd 14 51 37 be
       0.4150122 0.20127845 -0.06344208 -0.17902023
000220 2a 05 30 3e 4b 5a c5 3d 27 f0 f7 3e 7c fe 23 be
       0.1718947 0.09636363 0.4842541 -0.16015047
000230 9f 1b 82 3e 74 89 26 be 4b 5e f7 3d 79 9f 47 bd
       0.25411698 -0.16263372 0.12078532 -0.04873607
000240 55 52 92 3d d9 d3 1e 3f 1b ac ae 3e b1 b5 40 3e
       0.0714461 0.62042004 0.3411568 0.1881931
000250 67 bf ba bd dc 36 76 3e 1a 8e 98 be f7 ce a7 3e
       -0.09118538 0.24044365 -0.29795915 0.3277509
000260 b6 f3 33 3f dd 3f 87 3e f2 ee 6f 3e 8c 58 01 be
       0.7029375 0.2641591 0.23430994 -0.12631434
000270 79 50 da 3e 6a 30 cd be 64 cb d2 3d 06 6c b6 3e
       0.4263952 -0.40076 0.102927 0.3562929
000280 fe fa 5b 3e 45 d6 e4 3e c5 b3 1c 3c b1 d9 0b 3e
       0.21482465 0.44694725 0.009564345 0.13657261
000290 ff ed 0b bf da fb 65 be 09 20 0a 3e f0 78 48 be
       -0.5466003 -0.22459355 0.13488783 -0.19577384
0002a0 22 f9 09 3e 54 e7 9f be 18 04 42 be b2 4b 46 3e
       0.13473943 -0.31231177 -0.18946874 0.19364813
0002b0 50 72 c1 3d 1f f9 92 be 47 d9 ed be d8 c7 98 be
       0.094456315 -0.2870569 -0.46454832 -0.2983997
0002c0 d6 42 4f bd b0 33 b2 ba 6b 46 86 bc d7 ac dc 3d
       -0.05060085 -0.0013595726 -0.016391 0.10775154
0002d0 bc a8 31 bf 92 81 c9 3e bf 23 aa be 72 76 24 be
       -0.69398093 0.39356667 -0.33230397 -0.16060808
0002e0 7d 2e db 3d 93 de 07 be 47 ea 37 3d d7 1c 21 3f
       0.10702226 -0.13268499 0.04490116 0.6293463
0002f0 1f 2a ab bd 3c 2b fb bd 11 3a f8 3c 5b 61 63 3d
       -0.08357643 -0.12264106 0.030301126 0.055512767
000300 30 a3 7c be 83 b8 30 3e 23 26 44 3f 13 b7 dd bd
       -0.24671626 0.17257886 0.7662069 -0.10825934
000310 bc 4f 94 bd f5 fa bd 3e a4 40 fd bd 18 f5 a5 3e
       -0.072417706 0.37105528 -0.12365845 0.32413554
000320 59 27 ac be 8d 72 b0 3e 77 a3 11 be c8 5d a5 3e
       -0.3362377 0.34462395 -0.14222513 0.32298112
000330 5f 3f 94 3e 90 b3 b3 3e e1 86 b6 be cf 7b b0 bd
       0.28954598 0.35097933 -0.3564978 -0.086173646
000340 a1 30 7c bd 8f fd 74 bb ed 1b 98 be 5b f9 fa bd
       -0.061569814 -0.0037382578 -0.29708806 -0.12254592
000350 9f 2c 70 be 12 f8 fc 3c ef 31 97 be 51 93 df 3e
       -0.23454522 0.030880008 -0.29530284 0.4366708
000360 4b 16 9c 3d 9c 57 c5 be da 53 1f 3e a3 6f 95 3e
       0.076214395 -0.38543403 0.1555933 0.29186735
000370 c6 ba ab 3e bb 9e 9b bd a7 fd 6f 3e a9 1a 32 3e
       0.33540934 -0.07598635 0.23436604 0.17392983
000380 8a 5d 68 3f 46 a5 8d bd 82 93 22 bd 47 62 07 3c
       0.9076773 -0.06916289 -0.039691456 0.008263177
000390 06 46 3d bc 76 93 20 3e d2 7d 05 be 51 07 cd 3e
       -0.011552339 0.15681252 -0.13036278 0.40044644
0003a0 99 e6 87 be f9 19 87 3e 9a e0 31 3e b4 9c 8f be
       -0.2654312 0.26387003 0.17370835 -0.28049242
0003b0 d6 02 96 bd 28 5b 56 be f8 06 ed bd 26 98 bd bd
       -0.0732476 -0.20933211 -0.11573595 -0.09257536
0003c0 73 18 fb bd c6 e2 c6 3e 64 fa 04 bf ef 68 0d bf
       -0.12260523 0.3884489 -0.51944566 -0.5523824
0003d0 a2 af 6d be 3f c8 84 3d 04 93 8d be 83 c8 16 be
       -0.2321153 0.064835064 -0.27651227 -0.14724927
0003e0 0f b7 9f 3e 5c 03 98 3e b2 ff 58 be 17 1b 40 3e
       0.3119435 0.29690063 -0.2119129 0.18760334
0003f0 d7 19 f5 be e4 65 07 3c d6 6a c8 3d 56 96 0e be
       -0.47871277 0.008264039 0.09786002 -0.13924536

model.0.bias f4 [96]
000000 a5 3f 3a 3d 8d c1 a1 3e d2 6f ce bd 63 75 92 bd
       0.045470852 0.3159298 -0.10079922 -0.07151296
000010 89 9b 58 be f4 55 5a 3e 0c 4d 84 be 1e 16 44 be
       -0.21153082 0.21321851 -0.25840032 -0.19149062
000020 9d 97 55 3e 12 84 c7 3e 17 bb 69 3e 4b 16 72 3c
       0.20858617 0.3896795 0.22825275 0.014775823
000030 2d 8f 8b 3d 66 83 c9 3e 30 f6 da 3e ab fe 2d 3e
       0.06814418 0.39358062 0.4276595 0.1699168
000040 1d e4 9f 3e 0e 7b 1c 3e 7c c8 a5 3e fb 2a 3f 3e
       0.31228724 0.15281317 0.3237952 0.1866874
000050 0c 2f 6e bb af fd b1 3e 5e 49 a2 3e 25 62 07 3e
       -0.003634396 0.34763858 0.316966 0.13221033
000060 c5 cf 8f 3e ad 19 6d be 50 91 ac 3e c7 18 1b be
       0.28088203 -0.23154326 0.33704615 -0.1514617
000070 c1 cd bb be 1a 49 bb be cb 0f 69 bd ad ef 88 3e
       -0.36680415 -0.3657921 -0.056899827 0.26745358
000080 49 b7 ba 3e d7 43 16 bd 88 80 15 be 7f 35 bb 3e
       0.3646796 -0.03668579 -0.14599812 0.36564252
000090 4e de 8d be e2 43 d9 bb 45 fa 28 be 2b b5 34 3e
       -0.27708668 -0.0066304067 -0.1650172 0.17647235
0000a0 90 66 27 3e b9 61 8b bd 1d 28 9a be 5a e6 96 be
       0.16347718 -0.068057485 -0.3010873 -0.2947262
0000b0 e9 cd a4 3d 47 98 0d 3e 04 a2 9a 3e f5 2b c9 3e
       0.08047087 0.1382762 0.30201733 0.3929135
0000c0 25 20 ee bd d4 58 96 3e 51 bf 33 3e f7 a0 f1 bd
       -0.11627225 0.29364645 0.1755345 -0.1179828
0000d0 2f 8b ad bd 2a 5e a4 be 33 91 ba 3e 50 33 6d 3c
       -0.08473813 -0.3210309 0.36438903 0.014477566
0000e0 b8 85 d9 3e e5 3c d3 bd 4e a5 a2 be ab 07 93 3e
       0.42484832 -0.10314349 -0.31766742 0.28716788
0000f0 5a 5a 1b 3e 64 5b 5c 3d e6 44 d1 bd 87 0b 35 be
       0.15171185 0.053798094 -0.102182195 -0.17680179
000100 4c dc 76 3d ab 05 82 be 6d 51 9a be 55 bd 25 3e
       0.060268685 -0.2539495 -0.30140248 0.16185506
000110 53 df ef 3d 0c 7b a8 3d a1 65 e8 bc a0 f3 54 be
       0.117125176 0.08226594 -0.028368773 -0.2079606
000120 61 a2 8c be 40 5a 9f 3e 3c 3f ed bd 38 b7 81 3e
       -0.27467635 0.31123543 -0.115843266 0.25335097
000130 9e 10 47 be 11 9c 22 be db 02 00 be 07 3c a3 be
       -0.19439933 -0.15879847 -0.1250109 -0.31881735
000140 17 ac f3 bd 4b 7f 0e 3e 02 49 fd bd c4 7f 02 be
       -0.11898058 0.13915746 -0.12367441 -0.12744051
000150 c9 a1 51 be 11 48 a7 3d c2 51 a6 be 44 2f 46 3e
       -0.20471872 0.081680425 -0.3248425 0.19353968
000160 01 1f 48 be e5 a1 c2 bc f5 19 b5 be d0 4e 74 be
       -0.19543077 -0.023758838 -0.35371366 -0.2385819
000170 c1 f3 96 3e ed a4 74 bd 86 18 43 be 17 ee 84 be
       0.29482844 -0.059727598 -0.19052324 -0.25962898

model.1.weight f4 [96]
000000 6e dc 94 3f 52 a1 52 3f c4 f4 94 3f 20 05 44 3f
       1.162977 0.82277405 1.1637197 0.7657032
000010 22 b2 84 3f 1a 89 53 3f 56 c1 94 3f 17 ae 78 3f
       1.0366862 0.82631075 1.1621501 0.9714064
000020 1e 07 3d 3f 68 e3 67 3f dc 24 50 3f 92 72 7a 3f
       0.73838985 0.9058137 0.8130624 0.9783107
000030 bc c0 88 3f 7c e6 7b 3f 44 9d 7c 3f 49 54 9a 3f
       1.0683818 0.98398566 0.9867747 1.2056972
000040 88 21 71 3f 99 d2 2c 3f 64 53 82 3f 8e 28 75 3f
       0.9419179 0.67508847 1.0181699 0.95765007
000050 6f 27 72 3f fb 5e 84 3f 3f 12 5f 3f ec 93 8d 3f
       0.9459142 1.0341486 0.87137216 1.1060767
000060 cf dc 38 3f 88 9f 80 3f ed 44 2d 3f d6 a0 87 3f
       0.7221193 1.0048685 0.676833 1.0595958
000070 b2 72 34 3f f3 69 25 3f b4 5c 54 3f 0a fb 50 3f
       0.7048751 0.6461479 0.82953954 0.81633055
000080 f9 35 96 3f 9f 5e 4e 3f 3c 47 80 3f f2 ea 48 3f
       1.1735221 0.8061313 1.0021739 0.784835
000090 62 f7 6b 3f 59 37 84 3f 5e 13 a1 3f 40 c5 68 3f
       0.9217435 1.0329391 1.2584035 0.9092598
0000a0 35 9b 99 3f fd 5b 45 3f ad e1 ac 3f 08 09 75 3f
       1.200049 0.7709349 1.3506371 0.95716906
0000b0 a6 68 3b 3f 21 dd 52 3f 33 e1 72 3f 53 91 ca 3f
       0.73206556 0.82368666 0.94874877 1.58256
0000c0 a4 ed 6b 3f 40 d3 4f 3f b8 37 97 3f b2 33 67 3f
       0.92159486 0.81181717 1.1813879 0.90313256
0000d0 1b 22 43 3f 44 0d 86 3f 5b 49 35 3f bf 99 5c 3f
       0.76223916 1.0472798 0.70815057 0.861721
0000e0 89 50 ae 3f 33 3d 9b 3f c6 67 60 3f 9e 9d 32 3f
       1.3618327 1.2128052 0.87658346 0.69771755
0000f0 3d 9b 54 3f 20 1a 8d 3f f3 3b 84 3f 92 bb 83 3f
       0.83049375 1.1023598 1.0330795 1.0291617
000100 29 ae 41 3f 76 50 92 3f 82 ff 75 3f ee 4e 72 3f
       0.7565637 1.1430805 0.96093 0.9465169
000110 92 e7 82 3f 2f 6c 37 3f d1 d5 6c 3f b7 37 48 3f
       1.022692 0.7164945 0.9251376 0.78210014
000120 09 78 40 3f aa dc 70 3f 25 4e 19 3f fd 6f 6d 3f
       0.7518316 0.94086707 0.59884864 0.92749006
000130 9e 1a 5a 3f f4 52 96 3f e6 4e 38 3f 34 57 1f 3f
       0.85196865 1.1744065 0.7199539 0.62242436
000140 10 00 66 3f 31 62 67 3f d5 56 80 3f a3 b2 66 3f
       0.89843845 0.90384203 1.0026499 0.9011633
000150 3c b9 73 3f 8e 2f 9f 3f cc d8 7b 3f aa 34 32 3f
       0.9520452 1.2436388 0.9837768 0.6961161
000160 d7 4e 70 3f 20 1c 65 3f 3b 38 9f 3f 3e 9f 2f 3f
       0.938703 0.8949604 1.2439035 0.6860236
000170 f6 6d 7e 3f 15 1f 73 3f c4 ff 90 3f 2d 4f 7a 3f
       0.9938654 0.949693 1.1328053 0.9777706

model.1.bias f4 [96]
000000 ec e2 cc be b2 f8 8a be ea fe 3a bd 28 54 93 be
       -0.40016878 -0.27142864 -0.04565326 -0.28775144
000010 d5 b9 fe bd 2e 08 33 be b2 3d 24 bd 4d c3 ce bd
       -0.124377884 -0.17483589 -0.0400979 -0.100958444
000020 07 06 91 be 1b 47 00 be 6e 39 52 be a0 7a d0 bb
       -0.2832491 -0.12527125 -0.2052972 -0.0063622743
000030 fe f7 81 3e 86 37 2f be ff 19 b2 bd 09 ac 00 bd
       0.25384516 -0.17111024 -0.086963646 -0.031414066
000040 22 0e db bd 6f 3b 4e be 3f 54 88 bc 4e ba ff 3d
       -0.10696055 -0.2013986 -0.016641734 0.12486707
000050 db c3 9b be 3f 1d 94 be 98 df 2b be 04 5f 9e bd
       -0.30422863 -0.28928563 -0.16784513 -0.077329665
000060 49 8f 38 be 82 a6 9e 3d 43 00 b0 be fc 5a 91 be
       -0.18023409 0.077466026 -0.343752 -0.28389728
000070 b1 32 9e be 05 fd aa be 40 fd 70 be 60 0c 2c be
       -0.3089805 -0.33396164 -0.23534107 -0.16801596
000080 b6 15 11 be b4 75 54 be fb 4b 22 bd 85 31 5d be
       -0.14168438 -0.20748025 -0.039623242 -0.21600921
000090 f3 d7 28 bc c8 cd 86 be 7e fd 6b be de 70 08 be
       -0.010305393 -0.26328874 -0.23045918 -0.13324305
0000a0 04 e8 a5 3e fb b7 4b be 2e 23 0a 3d 80 de 6a bd
       0.32403576 -0.19894402 0.033724956 -0.0573411
0000b0 af 3d 3a be bc d2 12 be 9b 92 83 bc 72 c3 47 3d
       -0.18187593 -0.14338201 -0.016061118 0.048770376
0000c0 50 b3 55 be da db 3d be cc 90 6b 3d ec 3d 99 bd
       -0.20869184 -0.18540898 0.057511136 -0.07482514
0000d0 72 13 77 be 8c 91 90 bd 81 98 86 be ec 37 45 be
       -0.24128512 -0.07059011 -0.26288226 -0.19259614
0000e0 4b 0f 14 3e 49 d8 71 3d 1c e6 e2 bd ee 49 7d be
       0.14458959 0.059044156 -0.11079046 -0.24735233
0000f0 14 cd 46 be 70 c9 f7 3d da 74 28 be cb 5a 1a be
       -0.19414169 0.12098968 -0.16450825 -0.15073697
000100 f0 7d 9f bd ad d1 8b bc 18 57 e5 bd 15 60 37 3c
       -0.077876925 -0.017067755 -0.111982524 0.011192341
000110 70 51 3c 3d a9 06 69 be ac 67 87 bd 4e 18 8c be
       0.045976102 -0.22756447 -0.06611571 -0.27362293
000120 e8 d8 81 be aa d4 db bd 13 9c ce be 68 b1 58 be
       -0.253608 -0.10733922 -0.4035345 -0.21161425
000130 92 43 21 3d f8 55 95 be ca 0b 6b be e5 93 bb be
       0.03937108 -0.2916715 -0.22953716 -0.36636272
000140 44 24 a8 bc 55 60 77 be d5 84 7f be 67 a7 d2 bd
       -0.020525105 -0.24157842 -0.24953015 -0.10285836
000150 d9 c7 f7 bc 7b 56 b6 3d 94 3f a2 3e 65 24 20 be
       -0.030246662 0.089032136 0.3168913 -0.15638883
000160 48 28 74 be ab 4f 07 be 87 70 af 3e 06 83 a2 be
       -0.23843491 -0.13213985 0.3426554 -0.31740588
000170 6d 99 08 be c9 87 94 be 25 b1 03 be a7 eb 24 be
       -0.13339777 -0.29009846 -0.12860544 -0.16105519

model.1.running_mean f4 [96]
000000 23 e8 02 bf b0 18 d1 3e e0 12 c6 3e 54 3a 5e 3e
       -0.5113546 0.40839148 0.38686275 0.21701938
000010 b5 11 69 3e 8c 7e f7 3e ad 3d 8c bd 84 18 26 3c
       0.22760661 0.48338735 -0.06847701 0.010137681
000020 2e 9b f6 3e cc f6 98 3e 2a 96 03 3f 8f 5e b4 be
       0.48165268 0.2987579 0.5140101 -0.35228392
000030 a6 a5 62 3c bb 80 21 3f c0 e6 4f 3f e9 10 50 3f
       0.013833439 0.6308705 0.8121147 0.812758
000040 f6 08 2b 3f 4a 89 de 3d 9d 90 35 3f 67 c2 dc 3e
       0.6681055 0.108660296 0.7092379 0.43117067
000050 8f 25 01 3f 21 b9 64 3f c8 11 27 3f 40 ca 14 3d
       0.50447935 0.89344984 0.6526151 0.036325693
000060 70 5b af bd eb 29 f4 be cf f7 a6 3e 16 48 50 3d
       -0.08562362 -0.4768823 0.32610938 0.050849997
000070 af 5f 37 be b1 af 29 be bb db 6b be 18 4d 10 3f
       -0.17907594 -0.16570927 -0.2303304 0.56367636
000080 8d f8 40 3f 79 d4 fd bc b0 76 29 bf 69 c3 ec 3e
       0.7537926 -0.030985104 -0.6619673 0.46242836
000090 8d 6e 10 bf 3a aa 11 bd 28 81 4b bf 87 96 d5 3e
       -0.5641869 -0.03556273 -0.7949395 0.41716406
0000a0 df 68 8c 3e fb 84 b4 3e 6b 61 e7 be 1d c8 45 bf
       0.2742376 0.35257706 -0.45191512 -0.77258474
0000b0 b3 4c f9 bd 10 b6 04 3f cb 70 13 3f eb 15 a4 3e
       -0.12172832 0.51840305 0.57593983 0.32047972
0000c0 42 e6 ee be 51 a6 4d 3f 0c 9b 76 bd 03 a5 0c 3e
       -0.46660048 0.80331904 -0.060206458 0.13734822
0000d0 35 38 93 be a3 d4 68 be d0 ae 81 3e 98 ba e3 3d
       -0.2875382 -0.22737364 0.25328684 0.11119574
0000e0 0f f1 54 3f c3 52 60 be 6d d1 ff be 09 e8 9f bd
       0.83180326 -0.21906571 -0.49964467 -0.07807929
0000f0 b1 41 9f 3e 49 4c 0c bd 6a 1a b3 3e f5 76 16 bf
       0.31104806 -0.03425244 0.3498109 -0.58775264
000100 a8 1a 80 3d 66 e5 b9 3d a7 a0 2c bf a5 d6 b9 3e
       0.06255084 0.090769574 -0.67432636 0.36296573
000110 ce 25 0b 3f 2c 92 fd 3e 2b dd f1 3e c6 12 05 be
       0.5435456 0.49525583 0.4723905 -0.12995443
000120 11 c8 16 bf 64 3d 15 3f 58 64 d6 bd e8 ef 32 bc
       -0.5889903 0.582968 -0.10468358 -0.010921456
000130 f4 d5 c0 be f8 25 0d bf 82 85 e1 3e a2 6d cb bd
       -0.37663233 -0.5513606 0.4404717 -0.0993302
000140 86 16 9b be 31 9d 0f 3e 0f 5b bd 3e f3 aa f4 be
       -0.30290622 0.14024808 0.36983535 -0.47786674
000150 f7 6a 1b bf 7b 53 83 3e 25 b6 b2 be 56 39 fb 3e
       -0.6071009 0.25649628 -0.3490459 0.4906718
000160 ed bb b2 be bb 1e 86 3e dc ad 89 be 2d 47 8b 3d
       -0.34909 0.2619532 -0.26890457 0.06800685
000170 ae d5 c5 bd ee c0 1b bf 53 fc 03 bf 23 76 c3 bd
       -0.09659897 -0.6084126 -0.5155689 -0.09544017

model.1.running_var f4 [96]
000000 1d 4f c1 3c e5 1d 76 3c 03 b7 7b 3c c1 f0 30 3c
       0.023597294 0.015021776 0.015363458 0.010799588
000010 e6 cf e6 3c 64 d0 c2 3b a4 8b af 3b 4c 1a 58 3c
       0.028175306 0.0059452523 0.0053572226 0.013189863
000020 04 22 cc 3c 45 f9 1d 3c 77 c4 75 3c 3d ca bf 3c
       0.024918564 0.00964195 0.015000454 0.023411864
000030 e1 41 5f 3b 04 92 9c 3c 97 4e 3e 3c a2 34 b8 3c
       0.0034066366 0.019112594 0.011615417 0.022486035
000040 ff 8a 8e 3c 69 15 5b 3d 17 a5 a4 3c cc 81 12 3c
       0.017400263 0.053487215 0.020098252 0.008942079
000050 db 20 e4 3c 2e cc d6 3c 47 20 b7 3c 53 2b ca 3c
       0.027847698 0.026220407 0.022354258 0.024678862
000060 a5 0f 12 3d 22 71 1d 3c 80 ed 37 3c d5 06 c6 3b
       0.03565945 0.0096094925 0.011226058 0.006043295
000070 29 81 13 3d 57 2e 24 3d e3 8d 19 3c fc 1c 71 3c
       0.03601185 0.040083256 0.009372207 0.014716383
000080 7b ad 9f 3c 32 ea ae 3c 31 a3 a6 3c 06 2c 03 3d
       0.019491902 0.021351907 0.020341488 0.032024406
000090 ce 3c 5c 3c 9a 80 9b 3b 01 5d 01 3d be d0 c7 3c
       0.013442231 0.004745555 0.031582836 0.024391528
0000a0 bd aa 6b 3b 22 61 95 3c 09 91 b2 3b d3 eb bf 3c
       0.0035959922 0.018234793 0.0054494184 0.02342788
0000b0 6f 0b c8 3c 03 de 4c 3c 9a 6d fa 3b d3 b9 63 3b
       0.024419514 0.012504104 0.00764246 0.003474821
0000c0 f7 1f 5f 3c 62 bc 84 3c d0 af fb 3b a5 b5 da 3b
       0.013618461 0.01620311 0.0076808706 0.0066744857
0000d0 26 6d 81 3c 7b 9c 25 3c 49 45 1e 3d 2c e3 3a 3c
       0.015799116 0.010108109 0.038640294 0.011406701
0000e0 cc d7 95 3c 0c 43 a7 3b d4 69 bf 3c 67 8c 8f 3d
       0.018291377 0.005104428 0.023365892 0.070092015
0000f0 8e 20 71 3c 60 16 43 3b 2d 02 4f 3c 27 0e 92 3c
       0.014717234 0.0029767975 0.012634796 0.017829014
000100 87 b3 87 3c a2 f5 6e 3c 91 57 d8 3c 56 0c b5 3b
       0.016565097 0.014584931 0.026408942 0.005525152
000110 a6 01 a3 3c 58 17 f0 3c c1 39 8c 3c 8d 35 ee 3b
       0.019898247 0.029308006 0.017117383 0.0072695673
000120 ed af 2a 3c 6b 49 29 3c 04 ca 9e 3c 5c 06 7b 3c
       0.010417921 0.010332446 0.019383438 0.01532134
000130 5d c9 07 3c 61 12 50 3c de fc fb 3c 99 e8 e3 3c
       0.008287755 0.012699694 0.030760225 0.027820872
000140 a4 fb 4e 3c d2 a1 3b 3c 46 ab 6b 3c 37 9e b6 3c
       0.012633238 0.011452155 0.0143840965 0.02229224
000150 ef 36 90 3c 87 19 e5 3b 32 b3 53 3b 18 30 f3 3c
       0.01760432 0.0069915685 0.0032302854 0.029686019
000160 4f 48 57 3c a0 55 87 3c 9b 49 07 3b cf d8 3d 3d
       0.013139798 0.016520321 0.0020643238 0.046349343
000170 48 da 8c 3c 1b 10 95 3c 98 3e 83 3c a4 c5 c1 3b
       0.017193928 0.018196156 0.016021058 0.005913453

model.4.weight f4 [74, 96]
000000 a0 50 89 3c 3e ae b5 3d 19 55 1e bd 42 00 58 be
       0.016762078 0.08871125 -0.038655374 -0.21093848
000010 bb bf 85 bc 87 25 a3 bd 24 ec 2b bd c0 cd 34 bd
       -0.016326776 -0.07966142 -0.041973248 -0.04414153
000020 a1 d9 99 3c 5b 25 26 bb 99 b3 a2 3d da 34 0e bc
       0.018780531 -0.0025351855 0.07944412 -0.008679593
000030 da 9b 0a be 16 95 20 3d 55 ff 35 3d af d5 39 bd
       -0.13536015 0.03920468 0.044432957 -0.0453698
000040 60 d3 09 be 15 c9 be bd 54 db df bc bf dc 26 3d
       -0.1345954 -0.09315697 -0.027326263 0.040737864
000050 3e c8 6b 3d 15 f9 76 bc 35 0b f2 bc 78 e2 3b be
       0.057564013 -0.015074034 -0.02954636 -0.1834811
000060 52 f8 c2 bb f1 cb f2 bb d0 44 53 bc 74 f3 64 bc
       -0.0059500122 -0.0074095656 -0.012894824 -0.013974059
000070 a2 98 27 3d 12 46 29 3d 5e c4 d7 bb 55 60 72 be
       0.040917046 0.04132659 -0.006584688 -0.2366956
000080 98 b8 d4 bd fd a4 14 bd f4 30 e9 bd 24 9d a4 bc
       -0.10386771 -0.036290158 -0.1138629 -0.020094462
000090 ee 9f 29 be a4 d4 da bd d5 b3 79 3c cc 81 ae 3c
       -0.16564915 -0.10685089 0.015240629 0.021302126
0000a0 c1 55 df bc d4 cb 69 be bd 7f 71 be 3a d9 9b bd
       -0.02726257 -0.2283166 -0.23583885 -0.07609792
0000b0 0c d6 c4 bd ba 5a 4d bd f8 24 04 3e f7 5a 4c be
       -0.09611139 -0.05013535 0.12904727 -0.19956575
0000c0 32 75 a0 bb 43 0a 8d bc 8f be 12 be 79 fa 9b 3d
       -0.0048967833 -0.017216807 -0.14330505 0.07616133
0000d0 e8 39 d7 bd 6f b4 23 bd 69 91 8e bb 72 8d 7e 3d
       -0.105090916 -0.039966997 -0.0043508303 0.06214661
0000e0 bd b0 bb 3d 7b d0 e0 bd c8 21 17 be bb 74 f0 3b
       0.091645695 -0.109772645 -0.1475898 0.007338134
0000f0 67 f9 c2 bd 63 ab a7 bd d3 0a 60 3d 5b e6 8a be
       -0.09520226 -0.08186986 0.054697823 -0.27128872
000100 cd aa 90 be 5c e7 0d 3d 8f f8 0b be 06 00 71 3c
       -0.2825531 0.03464447 -0.13669036 0.014709478
000110 fa f3 47 be dc 07 79 3d af 2b fd bd f2 ba 96 3d
       -0.19526663 0.06079851 -0.123618476 0.07359876
000120 51 01 b8 3c 83 be 1d be c1 de 90 3d 3a 71 b6 bd
       0.022461565 -0.15404706 0.07073737 -0.08908315
000130 b0 73 c8 bc 69 e4 fa bc a6 29 59 bd 99 d9 bb bd
       -0.024469227 -0.030626493 -0.053018235 -0.09172363
000140 ad bd 32 bd f2 77 db 3b 8b 0c d2 bc db 90 c2 bd
       -0.04363792 0.006697648 -0.025640747 -0.09500285
000150 b5 16 fe bd fa 84 4f 3d ac f8 80 3d a1 18 81 3c
       -0.12406675 0.050663926 0.062974304 0.015758814
000160 f6 58 ed bd 1f 72 00 3d e7 2f e5 bd 42 6f ea 3b
       -0.115892336 0.031358834 -0.11190777 0.0071543762
000170 08 36 af bd 23 12 15 be d4 c3 83 bd 02 3e 3a bd
       -0.085552275 -0.145577 -0.064338356 -0.04546929
000180 f5 9b 95 3e 2f 76 b3 3c 10 5a 0e 3e 27 4b 48 be
       0.29220548 0.02190694 0.13901544 -0.19559918
000190 42 05 4d be 2e d9 3a bd 9c 55 9d 3d 3a 75 e1 bd
       -0.20021537 -0.045617275 0.07682344 -0.11008687
0001a0 df e3 64 3d 91 36 60 3c f7 b7 0f bd 42 e6 33 3e
       0.055881377 0.013684885 -0.035087552 0.17568305
0001b0 f7 0e 28 3e 22 3c 20 3e e4 de 94 3d ff bc 74 3e
       0.16411959 0.15647939 0.072690755 0.23900221
0001c0 f9 a0 68 3d 13 89 61 bd 67 2b 4b be 17 51 12 3e
       0.05679414 -0.055062365 -0.19840775 0.14288746
0001d0 04 bc 0e 3d 7d e6 47 be 6c 2b 19 be 33 e5 a4 bd
       0.034847274 -0.19521518 -0.1495797 -0.08051529
0001e0 d4 8a 83 bc 06 36 35 3d a9 6b 4d bd 4e 38 ba bd
       -0.01605741 0.044240974 -0.0501515 -0.090927705
0001f0 71 21 92 bd 62 72 9f 3d 40 b3 07 bd 1a f6 8b bd
       -0.07135285 0.07785489 -0.03312993 -0.068340495
000200 73 40 c5 3d fc 40 18 3c 7c a7 04 3e a7 73 03 bc
       0.09631433 0.009292837 0.12954515 -0.008023179
000210 50 69 11 3e 57 98 48 3d 84 eb c1 3d be 96 49 be
       0.1420033 0.048973408 0.09468749 -0.1968641
000220 ed 39 58 3d 05 11 01 bd 0f 05 be 3c 11 84 be 3c
       0.052789617 -0.03151037 0.023195772 0.023256334
000230 40 49 2b 37 76 7b 04 be 91 03 2e 3e a0 38 85 3d
       1.0209449e-05 -0.12937722 0.16993548 0.06504941
000240 a1 2b 3b 3e c9 68 01 3d 7b 20 f1 3d 7d dd 82 3d
       0.18278362 0.03159407 0.11773773 0.06389902
000250 1b b1 a8 3d 1f 44 3a bc 68 a6 a6 bd f2 51 b0 bc
       0.08236905 -0.01136878 -0.08137208 -0.02152345
000260 30 0f 3c 3e e5 76 c7 bc ba d3 77 bd 96 4b 19 3d
       0.18365169 -0.024348686 -0.060504653 0.0374256
000270 f7 5e 66 bd e1 10 0e 3e 61 2b 98 3c 85 cb be 3d
       -0.05624291 0.13873626 0.018575372 0.09316162
000280 19 5c 3f bd 3f 1d f9 3d 34 d1 0a 3d 10 f3 52 bd
       -0.04671869 0.121637814 0.033890918 -0.051501334
000290 90 3f 4e ba b8 46 a1 3d 66 1b 28 be 69 6b c7 3b
       -0.0007867748 0.07874817 -0.16416702 0.0060858023
0002a0 6c bd 78 3d 09 be 2c be cc 7c e6 bd 73 d4 74 3d
       0.06072752 -0.16869368 -0.11254272 0.05977292
0002b0 f0 40 3f 3b 57 a8 7c 3e 11 6c 84 bd 7c a9 16 3d
       0.0029182993 0.24673592 -0.064659245 0.036782727
0002c0 e9 01 f2 3d e8 61 13 3d 71 63 06 3b 68 da 29 bc
       0.118167706 0.035982043 0.002050605 -0.0103670135
0002d0 38 3b df 3d ec ff 1e 3d e4 f0 90 3c 29 4d fb bc
       0.10899967 0.038818285 0.01769299 -0.030676441
0002e0 9a ba 46 bd 50 c7 36 be 7a 94 f6 3d 44 e2 6d bd
       -0.0485178 -0.17849469 0.120400384 -0.05807711
0002f0 8d 8c 2d 3e 7c 81 44 3e 7f a4 f7 3d 8f 53 46 3e
       0.16948147 0.1919002 0.12091922 0.19367813
000300 ab 15 c2 bd bf 3c 4e 3d d0 41 41 be 76 05 7d 3c
       -0.09476789 0.0503509 -0.18872762 0.0154431965
000310 1c 70 66 3d 03 fd af bd ec fb e0 bd 2e 0a d0 3d
       0.05625926 -0.0859318 -0.1098555 0.101581916
000320 78 d3 20 bd 3c 02 b7 bd 22 b5 d9 3d 6f 31 b6 3d
       -0.039264172 -0.08935973 0.106302515 0.088961475
000330 86 49 70 bd ba 50 49 3d a1 da d0 3d 55 63 d9 3c
       -0.058663867 0.049149252 0.1019795 0.026536623
000340 b6 3a bc 3c 88 70 e8 bb 60 16 d5 3d 69 91 8d 3d
       0.022977214 -0.007093493 0.10404658 0.069125004
000350 7b c1 c5 bc 07 0b 84 bb 8b 4d e0 bb 13 cf 1b be
       -0.02414011 -0.004029635 -0.0068451813 -0.15215711
000360 07 f8 32 3d 22 92 93 bd 72 8e 1e 3d dc bb 1f be
       0.04369357 -0.07205607 0.038710065 -0.15599006
000370 19 0f 41 bc 87 b2 53 3c cf 04 81 3c 0a 63 f1 bc
       -0.011783385 0.012920982 0.015749363 -0.02946617
000380 a5 77 c6 bd fc fc 5e bc f2 fe e3 bd 9f 1d 6e 3b
       -0.09690789 -0.013610121 -0.11132611 0.0036333574
000390 aa 1a fc bd 77 ab a6 bd 88 a0 a3 be 49 f2 7e 3b
       -0.12309773 -0.08138173 -0.31958413 0.0038901737
0003a0 32 01 03 be 18 47 7a bb 42 3d ef be 47 9e 6a be
       -0.12793425 -0.0038189348 -0.46726424 -0.2291194
0003b0 40 82 6a bd ec 36 01 3d 4c 46 fc 3d 30 24 f4 be
       -0.057253122 0.03154652 0.123180956 -0.4768386
0003c0 52 ae 7e 3d fa 82 96 bd 82 0f a0 be a7 5b 6d bd
       0.062177964 -0.073492005 -0.31261832 -0.057948735
0003d0 7b 0f 11 be b6 b1 61 bd 2e 56 b6 3d c9 03 7e bc
       -0.14166062 -0.05510112 0.08903156 -0.015503832
0003e0 79 f2 b8 3d 2f 8a 2f be 4c 73 b1 be 0e 99 28 3b
       0.09030623 -0.17142557 -0.34658277 0.0025725993
0003f0 24 89 65 be 17 c2 84 be 15 90 a5 bc 7b 37 6c be
       -0.22415596 -0.2592933 -0.020210305 -0.23068039

model.4.bias f4 [74]
000000 56 40 40 3c a2 e9 93 bd c1 ef 28 3d fd c4 cd 3d
       0.011734089 -0.07222296 0.041244272 0.10047338
000010 f0 a4 51 bd da 0a 80 bc d9 3d 02 bd 8c 2d 8e 3d
       -0.051182687 -0.015630174 -0.031797264 0.06942281
000020 89 a9 d3 3c 10 4e 29 bd 26 0e 98 3d a6 d8 a5 bd
       0.025837677 -0.04133421 0.074245736 -0.08097963
000030 6f 7e 94 3d 22 34 f4 bc ac 80 5e 3b da 5a 70 3d
       0.07250678 -0.029810015 0.0033951206 0.058680393
000040 ca 74 87 3d d4 5d c5 3d 9f 7e 72 bd b7 ba 04 bd
       0.066140726 0.09637037 -0.059202787 -0.032404628
000050 2b 9d cb 3d da 0c 28 bd 67 e5 1e 3d 67 68 ab 3d
       0.09942087 -0.04102788 0.038792994 0.083695225
000060 60 bc b4 bd 88 93 83 3d 40 0f 1d bc 38 34 04 3c
       -0.08824992 0.06424624 -0.009586155 0.008069091
000070 18 ea c1 bd 90 f6 dd bd d2 78 0e bd 93 86 f0 3c
       -0.09468478 -0.10838044 -0.034783192 0.029361045
000080 d6 60 8a 3d 81 09 c4 bd cb cb b5 3d a3 c0 b7 bc
       0.06756751 -0.09572125 0.08876761 -0.022430724
000090 98 2f 1d 3d 09 cd 83 3d fe c5 e8 3d 47 e2 85 3d
       0.038375467 0.06435592 0.11365889 0.065372996
0000a0 24 c0 ae bd 9e d8 ee 3a e2 48 03 bd 72 6d b0 bd
       -0.08532742 0.0018222516 -0.03205193 -0.08614625
0000b0 a2 57 cd bc 1e 96 17 3c 94 06 3d 3d cd 86 a9 bd
       -0.0250662 0.009252099 0.04614885 -0.08277664
0000c0 e8 27 4e 3d 20 a6 af 3d 97 c7 6a 3b 75 ba c5 3d
       0.050331026 0.08576608 0.0035824531 0.096547045
0000d0 56 2f 9e bd 84 73 37 3d bf 31 78 3d 21 98 47 bb
       -0.07723872 0.0447879 0.060594317 -0.0030455666
0000e0 32 41 79 bb b0 c0 9d bb dd bc de bc 28 86 14 3c
       -0.0038033244 -0.00481423 -0.027189666 0.0090651885
0000f0 1b 5b 4d bd 6d 44 4c 3d 01 54 a1 bd 0f 0e e9 bc
       -0.050135713 0.049869943 -0.078773506 -0.028449086
000100 f5 73 a7 bd 4d 65 f0 3c ce ae cc bd 88 63 9e 3c
       -0.08176414 0.029345179 -0.09994279 0.01933457
000110 a2 20 19 3d ca f6 e4 bb 3c ab 2e 3c fe 2e d7 bd
       0.037384637 -0.0069874274 0.010660943 -0.1050701
000120 7d a5 33 bd 28 36 82 bd
       -0.043858994 -0.06357986

model.5.weight f4 [74]
000000 0e 61 54 3f b9 4f 8b 3f 65 5a 88 3f d6 b6 76 3f
       0.82960594 1.0883704 1.0652586 0.96372736
000010 68 75 68 3f d3 bb 84 3f 38 8d 72 3f 8d f6 84 3f
       0.9080415 1.0369819 0.9474673 1.0387741
000020 77 90 63 3f a6 25 84 3f 1d b1 2b 3f 15 04 93 3f
       0.8889231 1.0323989 0.6706713 1.1485621
000030 12 f0 8e 3f 1e 37 70 3f 8b 77 8c 3f 5b d7 82 3f
       1.1167014 0.938341 1.0973982 1.0221971
000040 27 db 69 3f 31 e1 62 3f 28 49 8c 3f 10 98 7f 3f
       0.91350025 0.88624865 1.0959826 0.99841404
000050 52 9e 80 3f 34 5f 81 3f cb 85 70 3f 4c d9 94 3f
       1.0048316 1.0107179 0.9395415 1.1628814
000060 7e 59 87 3f 94 a5 4d 3f 56 7a 50 3f 3e 11 5a 3f
       1.0574186 0.8033078 0.8143667 0.8518256
000070 0c c9 74 3f 1f d3 92 3f 40 fd 72 3f 4f 67 73 3f
       0.95619273 1.1470679 0.9491768 0.9507951
000080 7e 80 90 3f 90 19 8a 3f a2 df 8c 3f 99 a5 6a 3f
       1.1289213 1.0789051 1.1005747 0.9165893
000090 8c 06 2a 3f 6c 4c 81 3f 9f 75 7e 3f 9b 52 8c 3f
       0.6641624 1.0101447 0.99398226 1.0962709
0000a0 fc 9c 63 3f 5b c4 45 3f ad 2d 87 3f ee d8 82 3f
       0.88911414 0.7725274 1.0560814 1.0222452
0000b0 b9 3d 5a 3f c7 20 80 3f 7c d9 2a 3f 26 2d 76 3f
       0.8525043 1.0010003 0.66738105 0.9616264
0000c0 d0 f9 7c 3f 42 d6 59 3f 0a 88 80 3f 46 28 5a 3f
       0.98818684 0.85092556 1.0041516 0.852177
0000d0 6e 41 85 3f 6d 0c 81 3f 73 85 51 3f 39 2f 33 3f
       1.0410593 1.0081917 0.8184425 0.6999393
0000e0 81 64 4a 3f 49 88 60 3f 54 d3 7e 3f 97 e7 a4 3f
       0.79059607 0.87707955 0.9954121 1.2883176
0000f0 8a d6 95 3f 9c 54 64 3f e7 7a 7a 3f 2c dc 7f 3f
       1.1706097 0.89191604 0.97843784 0.9994533
000100 bb 30 60 3f e8 91 82 3f 71 2a 49 3f 0d 58 8d 3f
       0.87574357 1.0200777 0.78580385 1.1042496
000110 7d 31 71 3f 4a 6b 81 3f b2 4b 5b 3f 5f 8b 86 3f
       0.9421614 1.0110867 0.85662377 1.0511283
000120 0e 9f 88 3f e6 82 95 3f
       1.067354 1.1680572

model.5.bias f4 [74]
000000 c7 91 27 be b0 3e 15 be 93 3f c3 3d b3 06 09 be
       -0.16364203 -0.14574695 0.0953361 -0.13381462
000010 5b d8 35 be 11 44 c8 be d8 99 ee bd dc 6c b2 bd
       -0.17758314 -0.3911443 -0.11650437 -0.087121695
000020 52 96 b3 be 9e e3 90 be ce 33 a7 be 1f c6 4f be
       -0.35075623 -0.28298658 -0.3265671 -0.20290421
000030 5e 3e 14 be d8 54 df bd 6b ff 8c be 39 8f 84 bd
       -0.14476916 -0.109048545 -0.27538618 -0.0647263
000040 b3 e0 dd bd 4e 0e 2a be fc 21 9e bc 49 23 85 bb
       -0.108338736 -0.1660702 -0.019303314 -0.004063044
000050 18 24 c2 bd 33 9e 31 be 87 b1 d5 bd 86 9c 52 be
       -0.094795406 -0.17345504 -0.10434251 -0.20567521
000060 75 d9 1a be d5 8d 76 3d f9 09 47 be be db 0c bd
       -0.15122016 0.060193855 -0.19437398 -0.03438925
000070 ed 9a 3d be ec 9a dd bc 4c b5 13 3c fc f5 63 3d
       -0.18516131 -0.027051412 0.0090153925 0.05565451
000080 3c 33 9c 3d 6f 6c 5c be 3c d5 29 be ed 64 84 be
       0.0762696 -0.21525739 -0.16585249 -0.2585825
000090 bc b2 93 be ab f7 72 be 95 2c ab 3c b5 63 4b be
       -0.288473 -0.2372729 0.020895282 -0.19862254
0000a0 9f cc cd be 90 97 86 be d0 bc 55 3c f5 68 cc bd
       -0.40195176 -0.26287508 0.013045505 -0.099809565
0000b0 77 43 c2 be 9e e6 1d bd 1f 65 69 be 52 dc 87 be
       -0.37942097 -0.03855001 -0.22792481 -0.2653528
0000c0 94 38 8e 3d da 70 4f be d1 2f af be 2c 5a 1c bd
       0.06944385 -0.20257893 -0.3421617 -0.038171932
0000d0 17 b1 c6 bc 5e 68 63 be 8a fc 04 be 91 3d b4 be
       -0.024254365 -0.22207782 -0.12986961 -0.3520322
0000e0 5f 24 35 be 9f da 4f be 4a 82 79 be b0 39 9d bd
       -0.17689656 -0.20298241 -0.24366108 -0.07677019
0000f0 27 8d 16 be 2d b1 9c bb 24 49 86 be e6 59 f2 3c
       -0.14702283 -0.004781863 -0.26227677 0.029583883
000100 41 c0 e6 bd 31 72 db bd 52 74 3f be 9a be 9e be
       -0.11267138 -0.1071514 -0.18696716 -0.31004792
000110 64 ea fa bd 73 9b af be 8e cb b5 bd ed c0 e9 bc
       -0.12251738 -0.34298286 -0.088767156 -0.028534377
000120 b2 74 a3 3b 7c a8 0b be
       0.0049882764 -0.1363849

model.5.running_mean f4 [74]
000000 0f a0 cc bf 8d d6 7f 3f 89 b7 07 c0 00 3d 12 c0
       -1.5986346 0.99936754 -2.120577 -2.2849731
000010 d6 62 97 bf dd 62 df 3f d3 6d ca bf 3c 1a 94 bd
       -1.1827037 1.7452046 -1.5814766 -0.07231566
000020 ba 4e e9 bf dd ff 26 c0 0c 79 86 3f 02 bd b7 bf
       -1.822715 -2.6093667 1.050569 -1.4354556
000030 61 b6 43 c0 b9 61 5c bf 80 f8 72 3f 05 04 30 c0
       -3.0580065 -0.8608661 0.9491043 -2.7502453
000040 81 3f d4 3f 3e 48 3f bf 06 76 aa bf 9f 9e db bf
       1.658188 -0.7471961 -1.3317268 -1.7157782
000050 11 9e f6 bf 52 43 7f bf 4a 14 41 bf cf 44 dd bf
       -1.9266988 -0.997121 -0.75421584 -1.7286624
000060 55 1f 00 40 f4 80 9f 3e 2c 9e 48 3f f2 a1 39 bf
       2.0019124 0.3115307 0.7836635 -0.72512734
000070 a1 88 a0 be 76 b0 0d c0 04 04 05 c0 c3 c8 2d 3f
       -0.3135424 -2.2138953 -2.07837 0.67884463
000080 6e 22 bb bf dd 82 ba 3f 00 b8 d8 3f 3b 34 f7 3e
       -1.4619882 1.4571186 1.6931152 0.48282036
000090 80 7f 40 bf 9e ad 83 3f 62 0e de bf 4e 53 89 3e
       -0.7519455 1.0287359 -1.7348139 0.2682137
0000a0 3d a5 96 3f b0 55 4f 3f 64 1d f6 bf 46 21 81 3f
       1.1769177 0.80990124 -1.9227719 1.0088279
0000b0 a1 ea a4 3f ad 9d db bf 94 d2 1b 3d 95 b5 58 3e
       1.2884103 -1.7157494 0.03804262 0.21163018
0000c0 81 7b c4 bf d0 ef 85 be 10 28 b9 3f f6 3c 9d bf
       -1.535019 -0.26159525 1.4465351 -1.2284229
0000d0 d8 8d cf bf 86 82 61 3f 23 4d c9 bf 77 bf 51 3f
       -1.6215162 0.8808979 -1.5726665 0.8193278
0000e0 97 40 a6 3d f2 b8 2d c0 87 1d a2 3f b0 c7 8d bf
       0.08117788 -2.7144132 1.2665261 -1.1076565
0000f0 ea 93 54 3f a6 72 a0 be 32 bd 90 3f bd 0b f7 bf
       0.830382 -0.3133747 1.1307738 -1.9300457
000100 47 ed 11 bf 25 3b c2 bf 49 b6 19 bf a7 52 ce 3f
       -0.5700268 -1.51743 -0.6004377 1.6118973
000110 7a 08 af be 1c 9d 80 3f 0a 18 8b bd 21 81 66 bf
       -0.34186155 1.0047946 -0.067916945 -0.90040785
000120 82 b6 ea bf 7b f4 9d 3f
       -1.8336947 1.2340235

model.5.running_var f4 [74]
000000 f5 55 88 3f de 42 f8 3f e6 bc 63 40 e2 bb 32 40
       1.0651232 1.9395406 3.5584044 2.7927175
000010 64 ca 28 40 d4 43 16 40 de 95 07 40 59 4b c2 3f
       2.637353 2.34789 2.1185222 1.5179244
000020 cb a1 dd 3f 98 6b 74 40 26 2d c4 3f d9 53 96 40
       1.7315 3.819067 1.5326278 4.6977353
000030 cd 62 78 40 07 60 fe 3f 0e 7d 28 40 0b 3e a8 40
       3.8810303 1.9873055 2.6326327 5.2575736
000040 46 0d d2 3f 7c f6 85 3f 49 92 71 40 7d 34 1e 40
       1.6410301 1.0465846 3.7745535 2.4719536
000050 49 ec 0f 40 2a b7 30 40 4a fc 49 40 19 09 98 40
       2.2487967 2.7611794 3.1560235 4.7511106
000060 b0 8b 8c 3f f5 75 5f 3f b2 9d eb 3f cd ed 06 40
       1.0980129 0.87289363 1.84075 2.1082642
000070 df 47 a4 3f 15 8e 52 40 f6 cd 2d 40 ab 0b 5b 40
       1.2834433 3.289922 2.7156959 3.4225872
000080 51 ab 29 40 93 32 39 40 77 31 08 40 38 54 cf 3f
       2.6510813 2.8937118 2.128019 1.6197577
000090 a5 0c 3d 3f c1 2f f3 3f 4c 43 3c 40 ee bb b7 3f
       0.7384742 1.8998948 2.9416075 1.4354227
0000a0 c8 e2 b9 3f 14 bd 66 3f f9 7c 4a 40 d7 34 df 3f
       1.4522333 0.9013226 3.1638777 1.7438
0000b0 7b 1b 15 40 43 81 9d 3f 60 19 8f 3f 9e 89 ee 3f
       2.3298023 1.2305073 1.1179619 1.8635747
0000c0 17 ae 2d 40 59 dd af 3f 7f 67 03 40 02 71 c8 3f
       2.7137506 1.3739425 2.053192 1.5659487
0000d0 c6 7b da 3f e7 e8 0e 40 bc 19 aa 3f 3e 4d ef 3f
       1.7069023 2.2329652 1.3289104 1.8695447
0000e0 0a 31 81 3f cf 45 57 40 71 c8 09 40 af 5a 89 3f
       1.009309 3.3636358 2.152859 1.07308
0000f0 49 5c 89 3f 87 95 b5 3f 65 93 06 40 2f 98 3e 40
       1.0731288 1.4186257 2.1027462 2.9780385
000100 cb b7 9d 3f 6d 96 0a 40 72 b9 1d 40 a7 a5 1c 40
       1.2321714 2.1654313 2.4644437 2.4476106
000110 16 3a c0 3f df 2a 5a 40 b5 87 b7 3f 3f ee c8 40
       1.5017726 3.4088666 1.433829 6.279083
000120 b7 ef 6b 40 6a 79 3e 40
       3.686506 2.9761605

model.8.weight f4 [25, 74]
000000 a8 39 ec 3c b4 7a 51 bd 62 be d0 3d 67 68 bd bd
       0.028836086 -0.05114241 0.10192563 -0.09248429
000010 4d 54 d1 bd 87 54 1a 3e f0 13 2c 3e af 2c 65 bd
       -0.10221157 0.15071307 0.1680448 -0.055950817
000020 37 bd 89 3d 14 40 24 3b 66 60 19 3e 7f d7 49 be
       0.06725543 0.0025062608 0.1497818 -0.19711111
000030 6d 4e f0 3d b9 a1 87 3e 92 ef fd 3c da 4c 8a bc
       0.117337085 0.26490572 0.030998025 -0.016882349
000040 0e 89 e2 bd 83 dd 36 3d 40 f0 5c be 6d 89 ae 3d
       -0.11061297 0.044644844 -0.21576023 0.08522306
000050 5f 7e 52 be a2 ae 8d 3d 21 3a 8b be a3 5e 1d be
       -0.20556019 0.06918074 -0.27192786 -0.15368132
000060 e6 1f 49 be 20 57 4c be 63 ab 49 3d d2 58 82 3d
       -0.19641075 -0.1995511 0.049235713 0.063645974
000070 a7 7a 50 3d e6 24 47 3d 1c c6 63 3d 5e 95 16 be
       0.05089822 0.048619173 0.055608854 -0.14705417
000080 b8 a8 0a be 5f 23 90 3d 90 53 26 be 6e 05 ab 3c
       -0.13540924 0.070379965 -0.16242814 0.020876613
000090 4a 1a a8 bd 28 e4 cd bd 23 5b bd 3d 22 5a 7b be
       -0.08208139 -0.10053283 0.092458986 -0.24546102
0000a0 70 ce 77 bb f9 89 ac bb ca 7e dc bd ad 8d 28 3d
       -0.0037812255 -0.005265471 -0.107663706 0.041150738
0000b0 25 6c 8a 3d ec e9 4a be bf 03 a6 bb 37 fe 5e bd
       0.06758908 -0.19815797 -0.0050663645 -0.054441657
0000c0 a6 05 ca 3d 66 26 0a 3e 46 ef 81 bd b6 33 81 bb
       0.098643586 0.1349121 -0.06344466 -0.003942932
0000d0 6b 1c d4 bd 10 9f 9c be c9 9a a3 bd 99 e3 93 3c
       -0.10356983 -0.30590105 -0.07988507 0.018052863
0000e0 17 47 0f be fd a2 27 bd ed 0d a8 3b 62 34 26 be
       -0.13991962 -0.040926922 0.005128613 -0.1623092
0000f0 c1 b8 31 be 3e af e2 3c 75 ac 8e 3d a2 5a 40 3d
       -0.17355634 0.027671453 0.06966487 0.046961434
000100 f4 33 60 be ed af 24 be 21 d3 e7 bd 9a c2 7d b9
       -0.21894819 -0.16082735 -0.113195665 -0.00024200455
000110 ca ae e1 3d 32 62 3d bb 9c ba 74 3d bd f2 3c be
       0.110196665 -0.002889764 0.059748277 -0.18451972
000120 2c 7f 22 be 2f 11 00 be b9 b6 01 bd 9f 12 a0 bd
       -0.15868825 -0.12506555 -0.0316684 -0.07816052
000130 38 7a 11 be 2f 70 f9 3c 3d 68 78 3c 53 8c c9 3d
       -0.14206779 0.030449001 0.015161571 0.09841218
000140 23 d0 e9 3d 4c cc 51 be 23 64 05 3d 43 d9 38 3e
       0.11416652 -0.2048809 0.0325662 0.18051629
000150 96 7f 22 bd 42 22 95 3d 57 88 60 3e d5 21 30 bd
       -0.039672457 0.07281925 0.2192701 -0.043001015
000160 bf 15 bf bd ca f3 5e 3e 87 d0 21 be e1 af ea 3d
       -0.093303196 0.21772686 -0.15802203 0.114593275
000170 82 17 5c bd 48 6b 4b be 26 99 24 3d 67 61 5c be
       -0.053733356 -0.19865143 0.040185116 -0.21521531
000180 c9 44 c1 3d 56 7b 55 3d ea 58 47 be de 6b 82 bd
       0.09436948 0.052119575 -0.19467512 -0.0636823
000190 3a 08 b6 bd 02 2d b7 bd af ca 0c bd 87 61 39 be
       -0.08888288 -0.089441314 -0.03437298 -0.1810361
0001a0 08 06 ed bd bf ad 24 be 51 c5 fc bd c0 cd b5 bd
       -0.11573416 -0.16081904 -0.123423226 -0.08877134
0001b0 5e 04 2b bd da f8 0b bd 6e 55 90 3c 9a 2d 99 bd
       -0.04175221 -0.03417287 0.017618861 -0.07479401
0001c0 4b 1d 40 bd 01 a9 db bd f5 8c 87 bd 18 6b 30 be
       -0.046902936 -0.10725594 -0.06618682 -0.17228353
0001d0 1a 06 50 be 67 e5 e4 bd d2 77 c6 3d f9 b6 f0 bc
       -0.20314828 -0.111765675 0.09690823 -0.029384123
0001e0 b0 14 87 bb 71 dd 94 3d cd 84 0c be 5d e7 d8 3c
       -0.004122339 0.07268799 -0.13722534 0.02647751
0001f0 3f eb a3 bd be 01 b3 bd 32 36 c2 bd f7 20 97 3d
       -0.08003854 -0.08740567 -0.09482993 0.073793344
000200 1f 0d b8 bc 3d 1b 9e bc ea f7 71 bc c4 f8 07 3e
       -0.022467194 -0.019300098 -0.01476858 0.1327849
000210 87 06 2d bd aa cc 65 be 25 48 a4 bd 59 b5 1a be
       -0.042242553 -0.22441354 -0.08021573 -0.15108241
000220 f8 35 f7 bd 2b 00 2e be 1b 25 70 bd 2e f1 04 3e
       -0.120708406 -0.16992252 -0.058629137 0.12982628
000230 e8 12 81 3b c7 dc 46 be 2b 10 e0 3c b0 94 62 be
       0.0039390214 -0.19420157 0.02735146 -0.22127032
000240 49 53 55 bd e6 30 4c 3d 05 6e 91 bd 7d ed 76 be
       -0.05208138 0.04985132 -0.07101063 -0.24114032
000250 3b 3e f3 3d 7f 49 a9 bd a9 52 60 bd 67 11 0a 3e
       0.11877104 -0.082659714 -0.05476633 0.13483201
000260 f4 28 12 be 3f e9 a8 3d ca 19 c6 3d 64 ce 2f bd
       -0.14273435 0.08247613 0.096728876 -0.04292144
000270 9b ee d9 ba 0d fb 35 3d 2f 73 3f bd a8 4f 3c be
       -0.0016626896 0.044428874 -0.046740707 -0.18389761
000280 8b f4 58 3e d5 0a 5e 3e 64 28 45 3d 78 fa 14 3e
       0.21187036 0.2168382 0.048134223 0.14548671
000290 6d b0 54 3b fa ec e2 bc 44 9e 79 bd be ce 60 3d
       0.003245379 -0.02770089 -0.06094195 0.054884665
0002a0 eb 1f 4f be c0 d0 96 3d e3 40 1b be 49 38 d3 bd
       -0.2022702 0.07364035 -0.15161471 -0.1031347
0002b0 49 d8 fa bd 4a 19 33 be f4 87 38 3d fd 33 be 3c
       -0.12248284 -0.17490116 0.04505153 0.02321815
0002c0 2a 47 d9 3d b9 de 64 bd 77 ba 1e 3e e9 de 91 be
       0.106092766 -0.055876467 0.15500818 -0.2849038
0002d0 20 12 ad bd 85 8a fe 3c 8f 3a 5c 3d 80 68 11 3d
       -0.08450723 0.03107191 0.053766783 0.03550005
0002e0 5a 88 44 bd c6 e3 93 bd a4 2a 05 3d 1c b4 ae be
       -0.047981597 -0.07221179 0.03251137 -0.34121788
0002f0 ba a9 4c bd 64 38 63 3c 7a 98 34 bd 25 b9 c1 3d
       -0.04996655 0.013868425 -0.044090725 0.09459142
000300 74 29 20 3e 39 2d 1b be 78 96 3a bc ba f4 0c 3d
       0.15640813 -0.1515397 -0.011388414 0.034413077
000310 ce 68 42 3e 4c e8 c2 3d 9d fe 3b be d6 d9 50 3c
       0.18985292 0.09516963 -0.18358846 0.012747249
000320 68 50 15 bd 1e a3 8f be 39 5f 19 be 7d 32 e3 bc
       -0.036453635 -0.28054136 -0.14977731 -0.027734036
000330 f5 0a bc 3d a7 8b 98 bd ad 8b 0c 3c 03 a0 3e be
       0.091817774 -0.074485116 0.008578223 -0.18615727
000340 fb 5b 55 bd 04 8a dd bb ef b8 49 be c5 7e db 3d
       -0.052089673 -0.0067608375 -0.19699453 0.10717539
000350 7a 81 08 be 50 a0 37 bd c4 c1 0c bd 77 01 d8 bc
       -0.13330641 -0.04483062 -0.034364477 -0.026367886
000360 e6 23 0b 3d 7a 95 14 bd 2d 01 d2 3c 6a 43 9b be
       0.033969782 -0.036275364 0.025635326 -0.3032487
000370 9b 2d 36 3c 3d c6 4b be ba b4 33 bc db 25 a9 bd
       0.011119272 -0.1989984 -0.010968382 -0.082591735
000380 57 af 2f 3c 52 d9 80 3c f5 a8 26 be 38 be 2d 3d
       0.010722957 0.015728626 -0.1627539 0.042417735
000390 d4 96 14 3e 2c 01 ea 3d 2e 0d 2b 3c c3 21 e7 bd
       0.14510661 0.11426005 0.010440154 -0.112857364
0003a0 6a 3c 18 3e 99 27 9b be 28 af a3 bd 48 7b 50 3d
       0.14866796 -0.30303648 -0.07992393 0.05089882
0003b0 29 d6 80 3d 0c fe ec 3c 4b 0b 64 be 76 5c 51 3d
       0.06290848 0.028929733 -0.22269933 0.05111357
0003c0 20 99 72 be 13 64 05 3d d3 e5 73 be 07 1e 97 bd
       -0.23691225 0.03256614 -0.2381814 -0.07378774
0003d0 37 7f 6f be d3 6a b2 be 48 ef bb bd 67 bb 86 bd
       -0.23388372 -0.34847125 -0.09176499 -0.06578713
0003e0 9c 8b 95 3d 3e da 3d be 02 f0 54 3e 7b be eb 3d
       0.07302019 -0.18540284 0.2079468 0.11510941
0003f0 a3 0d 12 bb 17 b8 b0 bd 6b 1c 72 be 83 8b 80 3b
       -0.002228596 -0.08628862 -0.23643653 0.003922881

model.8.bias f4 [25]
000000 ee 10 b0 bc b9 16 9a 3c 5c 43 43 3d ec 2f f5 3d
       -0.021492448 0.018809663 0.04767166 0.11972031
000010 a1 ea d5 3d b5 91 e3 bd c2 a2 af bd 19 5f 71 3d
       0.104451425 -0.11111776 -0.085759655 0.058928583
000020 2b 19 e5 bc 1f d8 c9 bd e4 63 7b 3d 6b fb 01 3e
       -0.027966103 -0.09855675 0.06137456 0.12693565
000030 42 21 c6 3d 77 32 7b 3d 35 f8 05 3d bb 76 49 3d
       0.09674312 0.061327424 0.03270741 0.049185496
000040 45 f4 43 3c 17 40 d2 bc b2 25 ce 3d 25 d8 12 3d
       0.011960094 -0.025665326 0.100657836 0.035850663
000050 24 c8 df bb c5 49 78 bc 07 bf 66 bd 6f 80 9d 3c
       -0.0068292785 -0.015154307 -0.05633452 0.019226281
000060 dd e0 c9 bd
       -0.098573424

model.9.weight f4 [25]
000000 cc e9 7e 3f 08 a6 8e 3f 9b e8 80 3f b6 cb 85 3f
       0.99575496 1.1144419 1.0070986 1.0452793
000010 40 0b 6f 3f 1a 05 65 3f 32 dd 9a 3f 6c a0 85 3f
       0.9337654 0.8946091 1.2098753 1.0439582
000020 14 86 90 3f 24 b2 67 3f 01 c8 92 3f a5 39 89 3f
       1.1290917 0.90506196 1.1467286 1.0720717
000030 57 7a 76 3f 98 9d 68 3f 35 e1 98 3f 5b 0f 88 3f
       0.96280426 0.9086547 1.1943728 1.0629686
000040 b9 9a 94 3f 3c 6a 8e 3f ae 01 75 3f 0f 63 84 3f
       1.1609718 1.112617 0.9570569 1.034273
000050 6a 3b 83 3f c0 67 7b 3f ce d5 96 3f d1 28 8c 3f
       1.0252507 0.98205185 1.1783998 1.0949956
000060 11 65 81 3f
       1.0108968

model.9.bias f4 [25]
000000 a1 b8 5e bc cf 30 b8 bd ea 8b 46 bd 8c 9e a6 3b
       -0.013593824 -0.089936845 -0.048473276 0.005084818
000010 b3 10 af be d9 ae 6b bd c2 64 00 bd fd e3 4b be
       -0.34192428 -0.057539795 -0.03134609 -0.1991119
000020 0a e3 e9 bd db e3 a0 bc cb b9 00 bc 55 d2 9f bd
       -0.114202574 -0.0196399 -0.0078567965 -0.078037895
000030 65 e3 50 3c 41 d6 e6 bd d6 3c 30 be 7f d1 1e 3d
       0.012749528 -0.112713344 -0.17210707 0.03877401
000040 bc 24 50 bd b3 71 21 be 0e f3 a6 bd 18 aa 3c 3d
       -0.050816283 -0.15766029 -0.08151828 0.04606065
000050 55 9f f3 3d 57 e5 6e bd e6 c7 1c be 45 d7 40 bd
       0.118956245 -0.058324184 -0.1531063 -0.047080297
000060 44 35 2a be
       -0.16621882

model.9.running_mean f4 [25]
000000 88 8b 82 bf 53 92 a3 bf 6e 6c 25 bf 3a fc 91 bf
       -1.0198832 -1.277903 -0.64618576 -1.1405098
000010 92 eb 6f 3e 6b b4 e4 be 20 fe 0a be 70 de 81 3c
       0.23429707 -0.44668898 -0.13573503 0.015853137
000020 31 05 d5 bf ba 49 54 bd 82 70 b0 bf 0f 70 1c 3c
       -1.6642209 -0.051828124 -1.3784335 0.009548201
000030 80 4a f7 be 00 0e 0e 3e 06 7a db bf b7 91 84 bf
       -0.48299026 0.13872528 -1.7146614 -1.0356969
000040 fd 80 b4 bf b9 32 a7 bf c0 80 4f bf d0 3a 49 bf
       -1.4101864 -1.3062354 -0.8105583 -0.78605366
000050 f5 6a d7 bf 2f 2f 3a bf d7 0f d9 bf 63 d2 c8 3e
       -1.6829516 -0.72728246 -1.6957959 0.39223012
000060 9a 1f f7 3d
       0.120665744

model.9.running_var f4 [25]
000000 90 12 89 3f e6 4b db 3f 32 3a 88 3f b0 07 d9 3f
       1.070879 1.7132537 1.064276 1.6955471
000010 dc fb b1 3f c2 89 86 3f 4c e8 e3 3f 83 8a d0 3f
       1.3904986 1.051079 1.7805266 1.629227
000020 f6 6e f0 3f a9 49 75 3f ba 37 f5 3f f5 8f c4 3f
       1.8783863 0.9581552 1.9157631 1.5356432
000030 5d fb ba 3f 5c 03 80 3f 34 e3 f7 3f 70 bd 88 3f
       1.460796 1.0001025 1.9366212 1.0682812
000040 c6 2b 05 40 95 f2 da 3f e3 43 7e 3f c1 d0 84 3f
       2.0807967 1.710528 0.99322337 1.0376207
000050 be 45 9f 3f 8b ef 93 3f c6 85 08 40 d8 3e 00 40
       1.2443159 1.1557478 2.133165 2.0038357
000060 c0 82 49 3f
       0.78715134

model.12.weight f4 [1, 25]
000000 da 88 03 be 40 a4 8b 3e 10 7c 19 be 8b eb 01 be
       -0.12845173 0.2727375 -0.14988732 -0.12687509
000010 fb f3 12 be a7 bd a1 bd a9 87 85 3e f9 b7 83 3e
       -0.14350884 -0.078975014 0.26080063 0.25726297
000020 0f 09 92 3e 5f 5b c6 bd 4e 77 50 3e 76 9b 53 3e
       0.28522536 -0.096853964 0.20358011 0.20664772
000030 c0 7a 24 be fe c6 bf bd 2f 6a 52 3e cc 67 30 be
       -0.1606245 -0.093641266 0.20548318 -0.17227095
000040 a2 fb 32 3e e9 85 76 3e 4f d8 af bd 06 2b 62 be
       0.17478803 0.2407452 -0.085861795 -0.22086725
000050 3a 8c cf bd a2 11 10 be 30 c7 4a 3e bd d8 8c 3e
       -0.10134168 -0.14069226 0.19802547 0.27509108
000060 ad d3 47 be
       -0.19514342
