BusinessCase2_Group13/Results&Optuna/best_model_IncomeInvestment.pt (torch, 72548 bytes, 25 tensors)

model.0.weight f4 [91, 7]
00000000: 519f dabe efc5 723e 5d23 1abe 6fdc 343d
00000010: 3023 973d 442a 37be 0b0d 243e 56c9 2fbe
00000020: db00 05be abb0 18be c31b 85be cf7a e7bd
00000030: 517e c6be ba6e a53e 090b 793e b4f8 a0be
00000040: 6e3d 993e dcd2 5b3e 638c 8ebd acd5 cf3e
00000050: 3410 d53e 13c0 ca3d 6530 5c3c 586f d3bd
00000060: 1682 113d 4c5b f0bb 57b1 593f e2e0 fa3b
00000070: 30e9 adbd baf3 e2bc c46d 4ebc a98c 4fbe
00000080: 0520 b03e a705 4fbe cc13 39be ade6 bdbe
00000090: 3630 033e 4155 96be 1ce9 03be e2f8 b83d
000000a0: c347 09bf 7c02 de3d 585b 0b3e 3a13 fc3d
000000b0: 5dd9 d6bd 131d acbe 0ca7 8bbd 8614 23be
000000c0: 1d8b d93e ada1 f1be c392 843e ad53 52bd
000000d0: 5b1c 20be e345 373e 1106 083f 42c8 393e
000000e0: 20a9 b53e 06f2 1a3e e2a4 8f3e 22ec 4b3e
000000f0: 1341 803e a5dd 283f e9ee ceba 0387 b3bd
00000100: 093c 99bd 7ad7 333d 5d26 6e3e 3dc6 ad3e
00000110: 0ef1 f2be dca6 6d3d 1ab2 0f3e b0c2 153e
00000120: b5ba bebe a61e e5be 9a12 863d 327b 91be
00000130: c600 0cbe fdac 96be e4f3 db3d 1604 3c3e
00000140: f67f 51bd 7ea4 d3bd 9bb1 e2be 81dc 473e
00000150: b50b 74be 0156 6d3d f204 33be 5475 b13e
00000160: d830 44be 5fa2 8fbe 5957 b0bc b7c9 bebe
00000170: 1051 fc3d 5f2d dcbb 1cb7 e53d a171 f7bc
00000180: 2695 683e c7f0 21bd 2655 cd3e 6c52 8a3e
00000190: c51f 713e 60ad f7bd ecb6 4a3e 0a28 a9be
000001a0: 8437 58bd b3d2 babe c9f2 74be 9f55 5ebc
000001b0: c97d 633e 5631 903e 9644 bf3e d643 01bf
000001c0: cebd 6d3e 66d0 a13c b000 253e bf88 1f3e
000001d0: f72a 013e cc7f 6e3f fb01 8d3e 6c55 4dbe
000001e0: 81db c93d 5594 a1be 32a5 dc3e b2fa 2f3e
000001f0: 7b8d 403d d599 e23d ea04 1f3e 8207 bd3e
00000200: 26c5 803d fcee 9f3e 8547 9d3e 3320 113d
00000210: d773 55bc 32be cdbe df48 553e 0b73 a83e
00000220: 2c3d 22be 6ca7 debd b65d f6be a54e a1be
00000230: aebb d6bb 8104 36bc 5bf0 16be c483 863d
00000240: 9883 b43c 5671 91be ee68 8ebe dc2f 1b3f
00000250: bf40 3f3d 0b8a fc3c b584 89bd d74f e7bd
00000260: 9c70 033e 4395 763e 4038 44be d4a3 16bd
00000270: fa55 963e c9d8 ebbe 59d7 553e 9edc 0bbf
00000280: 0768 ee3d bfb4 58be 282e 933e 88a1 ce3a
00000290: 8278 c9be b75a 953e c4a8 d4bd ecd0 08be
000002a0: c996 e13d 9223 e9bc 64cf 0bbe 7952 b5be
000002b0: 938b 0dbe af57 87be 1578 2bbe 0fd1 9a3e
000002c0: ed97 48be 900d 83be 210d 8cbd 110e 7abd
000002d0: 7095 c33e dfb9 903e a44e e7be bcb4 27bd
000002e0: 7aed 463e 2a40 67be 8d78 063e 6c27 d03e
000002f0: 9285 b93e 4c35 003d d6d6 39bc fe55 4ebd
00000300: d0c0 1f3d 5573 cd3c b052 03bf fc03 e53e
00000310: 4efe 4dbe 0c6e 853e ca7b 43be efa0 89bb
00000320: 0b24 803e fbd1 11bf 092c 943e 0ac4 c93e
00000330: 5234 5f3e 46bf 6fbe 0f89 c0be 27c9 24be
00000340: a2db 623e c3c0 8bbe 8c2c 023e 5cca 4c3c
00000350: 601f f1bd 0819 a6bc 5983 64bd 290b 1a3f
00000360: c11f 15be 4022 19be 6b60 963d be53 66be
00000370: 0f31 3e3e 4769 303d 2ca8 023f 0e7e a3be
00000380: a9c5 103e 42c8 35be e080 a7bd ec45 e83d
00000390: d4fe b93d 757a 3cbf 67fd 9e3d 6479 a73e
000003a0: 86eb b93d beb4 d4be bbe4 3e3e bc2c a0be
000003b0: b39c dd3e c8c0 933d 0c8c 2abe 9261 3d3e
000003c0: bac0 a7bd e3ce 5b3e 9b8d 97be 1028 ff3e
000003d0: 7c34 b1be 4464 d0be cc55 bf3d 92de d63d
000003e0: 0a9f 873d 171c 10be eeec abbe 31f0 d93e
000003f0: d3f9 1b3e 2277 313e b875 7ebe ce59 b93d
-0.42699674 0.23708318 -0.15052553 0.044155534 0.07379758 -0.17887217 0.160206 -0.17166647
-0.12988608 -0.14911143 -0.25997743 -0.11302721 -0.38768247 0.3231104 0.24320616 -0.31439745
0.2992968 0.21467155 -0.069603704 0.40592706 0.41613925 0.098999165 0.0134392725 -0.103239715
0.03552445 -0.007335102 0.85036224 0.0076562027 -0.084917426 -0.027704109 -0.012599412 -0.20268501
0.3439943 -0.20217 -0.18073958 -0.37090054 0.1281136 -0.2936192 -0.12881893 0.09031846
-0.53625125 0.108403176 0.13609064 0.12308355 -0.104906775 -0.33615932 -0.06818971 -0.15925798
0.42488948 -0.4719366 0.2589322 -0.05134933 -0.15635817 0.17897753 0.53134257 0.18142799
0.35480595 0.15131387 0.28055483 0.19914296 0.25049648 0.659632 -0.0015787754 -0.08765986
-0.07482154 0.043906666 0.23256822 0.33940306 -0.47449535 0.058020458 0.14032784 0.14625049
-0.3725182 -0.44749945 0.06546517 -0.28414303 -0.1367217 -0.29428855 0.10739878 0.18360934
-0.051147424 -0.10334109 -0.44276127 0.1951771 -0.23832591 0.057943348 -0.17482355 0.34659827
-0.19159257 -0.28053567 -0.021526026 -0.3726327 0.12320149 -0.006719276 0.11216566 -0.03020555
0.22713146 -0.039536264 0.40104026 0.27016008 0.23547275 -0.120936155 0.19796342 -0.3303836
-0.05278732 -0.36488876 -0.2392074 -0.013570218 0.22215952 0.2816264 0.37357014 -0.50494134
0.23216936 0.019752692 0.16113544 0.15579508 0.12614046 0.9316375 0.27540573 -0.20052117
0.0985632 -0.3155848 0.43094784 0.17185476 0.047009926 0.110644974 0.15529218 0.3691979
0.06287603 0.31237018 0.30718628 0.0354311 -0.013028107 -0.4018417 0.2082858 0.3290027
-0.15843648 -0.10871777 -0.4811837 -0.31505314 -0.006553135 -0.011109472 -0.14740126 0.06568101
0.022035405 -0.2840678 -0.2781443 0.606199 0.046692606 0.030827543 -0.06714765 -0.11294525
0.12835926 0.24080376 -0.19162083 -0.036777332 0.2936247 -0.4606383 0.2088293 -0.5463351
0.116409354 -0.21162699 0.28746152 0.0015764693 -0.39349753 0.29170772 -0.10383752 -0.13360947
0.11015088 -0.028459344 -0.13653332 -0.35414484 -0.13822775 -0.26434085 -0.16745026 0.30237624
-0.19589205 -0.25596285 -0.06838442 -0.06104857 0.3819995 0.28266808 -0.45177186 -0.040943846
0.19426528 -0.2258307 0.13131924 0.40655077 0.3623472 0.031300828 -0.011342725 -0.050374977
0.03900224 0.025079409 -0.51298046 0.44729602 -0.20116541 0.26060522 -0.1909019 -0.004200093
0.250275 -0.5696103 0.28939846 0.39407378 0.21797302 -0.23412809 -0.37604567 -0.16092359
0.22154096 -0.27295503 0.12712306 0.012499418 -0.117735624 -0.020275608 -0.055789325 0.6017328
-0.14562894 -0.14954472 0.07342609 -0.22492883 0.18573402 0.04306915 0.5103786 -0.3193211
0.14137901 -0.17752174 -0.08178878 0.113414615 0.09081808 -0.73624355 0.077631764 0.327098
0.09078126 -0.41544145 0.18641941 -0.3128413 0.43283615 0.072145045 -0.16654986 0.18494251
-0.081910565 0.2146564 -0.29600224 0.49835253 -0.34610355 -0.40701497 0.09342536 0.10491671
0.06622131 -0.14073215 -0.335792 0.42566064 0.15232019 0.17330602 -0.24849594 0.09050332

model.0.bias f4 [91]
00000000: e0a2 013e 1f0a 963d 475e 303e e90e 14be
00000010: 443e adbe 97ba 01bd 247f 31be b981 7e3e
00000020: f2a2 83be 52b7 9e3e a34a a33e 8710 7dbb
00000030: feae 19be 6507 36be 9623 74be 70e1 7b3e
00000040: b56e 10be 719c 993e c742 283d d514 b7bd
00000050: 312b 043d 8147 45be 9124 f93d 1673 8ebe
00000060: 9d99 423e 8b7d 97be af80 b03e 2ba4 ae3e
00000070: b06e 903e 7bd1 8bbe 613f a7be 2565 8bbe
00000080: 53f3 8e3e 49b2 b3bd 26e5 923e 7b12 d6bb
00000090: e762 733e 27d2 d1be 4ec4 8e3e 0b95 f8bd
000000a0: ab66 b53d 6b35 7e3e be6f 11bd 6d97 45bc
000000b0: 2e67 b63e 579b cebd 2538 883e dede 0dbe
000000c0: 3b04 39be 548b 593e b6ba 983e 70e6 813e
000000d0: e3b6 4ebe c47f 9bbe 00d6 1f3d 8bfc 933e
000000e0: aee6 9bbe 6e34 903e 25a4 9a3e a7c8 6b3e
000000f0: 4f01 713e 7ab6 08bd b0e0 19be c618 b03d
00000100: 176a 92be 8bff a4be e13f fabd 9dce 02bd
00000110: fa68 983e f412 7fbe d04e babe de82 10be
00000120: c446 8abe 4e1d c3be 8804 b8bd bc83 dc3d
00000130: d1dc 91be 61f0 443e 9c77 5a3c a0a3 213e
00000140: 67aa 5b3e 9c3e afbe c076 053e 570c 51be
00000150: f5cb e73e c30e 2ebe 8b04 9e3e 3274 29be
00000160: 026e cf3d 4c63 ae3e 9f60 5bbe
0.12659788 0.07326149 0.17223464 -0.14458813 -0.33836567 -0.031672087 -0.17333657 0.24854173
-0.25710255 0.30999237 0.3189288 -0.0038614587 -0.1500816 -0.17776258 -0.238417 0.24597716
-0.14104731 0.30002168 0.04107931 -0.0893952 0.032267753 -0.19265558 0.121651776 -0.2782218
0.19003911 -0.2958797 0.34473178 0.34109625 0.28209448 -0.27308258 -0.32665542 -0.27225605
0.27920017 -0.087742396 0.2869045 -0.0065329648 0.23768197 -0.40980646 0.27884144 -0.12137803
0.08857473 0.24825065 -0.035506956 -0.0120600285 0.35625595 -0.100882225 0.26605335 -0.13854548
-0.1806802 0.21244556 0.2982995 0.25371122 -0.20186953 -0.30370915 0.039022446 0.28903612
-0.30449432 0.28165 0.30203357 0.23025762 0.23535655 -0.03337715 -0.15027118 0.08598475
-0.28596565 -0.32226214 -0.12219215 -0.031935323 0.2976759 -0.24909574 -0.36388254 -0.14112422
-0.27007115 -0.38108295 -0.08985239 0.10767314 -0.28488782 0.19232322 0.013334181 0.15785074
0.21451722 -0.34227455 0.13033581 -0.20414864 0.45272794 -0.16997819 0.3086284 -0.16548231
0.10128404 0.34060133 -0.21423577

model.1.weight f4 [91]
00000000: 537f 5d3f ed2d 753f 4747 5f3f 9568 993f
00000010: 9334 873f d760 843f b288 6e3f 005e 823f
00000020: c217 663f 9064 803f 95bb 6f3f 945b 8f3f
00000030: f61e 873f a7e0 6d3f 17f3 603f 672e 7b3f
00000040: 2f51 883f b6da 763f d17c 513f af4b 7e3f
00000050: 2c76 963f ec83 833f afe0 793f 246a 6b3f
00000060: 130b 7f3f 3a47 7c3f e019 6e3f aa13 9f3f
00000070: f041 6b3f af3e 6e3f c80b 8d3f 2d5f 8b3f
00000080: 46bd 833f 7fbc 803f f1d2 813f 9131 883f
00000090: 0cf8 683f 8efa 8e3f ef17 793f 67d3 8b3f
000000a0: e41e 953f c0c2 7d3f 7042 6c3f a324 523f
000000b0: 2816 693f f2ed 4b3f b66d 5b3f 2c80 763f
000000c0: 9b6a 8c3f f383 833f b52f 733f dd6e 873f
000000d0: 3e2e 7e3f 7666 813f 16e9 8d3f 19b4 7c3f
000000e0: b405 883f 84ce 583f 9aad 653f d06d 483f
000000f0: e2e5 5d3f 08a3 6e3f 72b9 7f3f 0ca7 763f
00000100: 34ce 763f e28c 763f d1e6 743f a312 6a3f
00000110: dea3 733f fdf9 5c3f c3ae 853f 2f13 673f
00000120: c5ae 793f 4a41 923f d530 873f e4af 5b3f
00000130: ba12 733f 6a4d 773f e239 853f 40f5 683f
00000140: 3760 643f 2236 603f 4f21 853f cc29 883f
00000150: 4553 883f 6566 733f 3548 663f 7fe0 803f
00000160: 7b17 6c3f 4ba1 6f3f 8feb 663f
0.86522406 0.957732 0.87218136 1.1985041 1.0562919 1.0342053 0.9317733 1.0184937
0.8988 1.0030689 0.936456 1.1199822 1.0556324 0.9292092 0.87870926 0.9811768
1.0649775 0.96427476 0.8183108 0.99334234 1.1754813 1.0274634 0.97608465 0.9195883
0.9962627 0.98546183 0.9300823 1.2427876 0.9189749 0.930644 1.101922 1.088842
1.0292137 1.0057524 1.0142499 1.0640126 0.9100349 1.1170213 0.97302145 1.092389
1.1650052 0.9912529 0.92288876 0.82087153 0.9104943 0.7965995 0.8571428 0.96289325
1.0970033 1.0274643 0.9499467 1.0580708 0.9928931 1.0109394 1.1086757 0.9871231
1.062674 0.8469012 0.8971802 0.7829256 0.866789 0.93217516 0.9989234 0.96348643
0.9640839 0.9630872 0.956647 0.9143469 0.95171916 0.8631895 1.0443958 0.90263647
0.975323 1.1426175 1.0561777 0.8581526 0.9495045 0.966025 1.040829 0.9099922
0.8920931 0.875826 1.040079 1.0637755 1.0650412 0.95078117 0.8995393 1.0068511
0.9222333 0.9360549 0.90203184

model.1.bias f4 [91]
00000000: 73f8 ddbd e758 ecbd 1c0f 10be f82c e7ba
00000010: eff0 92bd 7756 1d3d 1bdf 15bd 509a eebc
00000020: 2883 8bbd 83e9 dbbc 834b 31be 6eb9 8b3d
00000030: 59c4 18bd 3d9a 36bd 6c14 2dbe 268c a0bc
00000040: d803 dbbc 63ae dcbd 6413 c4bd 4524 7bbd
00000050: a240 dd3d 9e61 0dbe 7d33 11bd 6a28 eabd
00000060: 3044 dabd 7cc3 ebbd 550c 773d 24bc 3c3d
00000070: d46b d7bd 2a39 bbbd 9491 103d e3c0 ad3d
00000080: 048b f6bc 262d 603d 73b8 03be b8cd 053c
00000090: 7890 bdbd 7b98 cc3d 2a35 aebd 9df2 76bc
000000a0: 8858 e6bd eb6d a1bc b374 2cbd 61d6 2dbe
000000b0: 0374 d5bd 5761 3fbe f0ed 50bd 11dc 08be
000000c0: 9839 a5bd ae18 ccbb fd31 f9bd 5ed7 01be
000000d0: be1d 3fbe 4265 0dbd e245 003e a753 01be
000000e0: 9de0 edbc 92df 48be a6aa bebd 905a 6abe
000000f0: 9cbc 38be 2852 bebd 5d3f faba 367b a1bd
00000100: d525 193d d3ff 78be b3f8 e7bd 4a50 10be
00000110: 7062 17be 85b9 21be 0c8c 49bd a718 f1bd
00000120: 15f0 3b3d b07a 53bd 05f1 8c3e f6cd 2abe
00000130: a518 cbbd 5ae2 95bd 5948 1abd 3203 13be
00000140: 1086 02be ef31 3ebd e59e 2dbd ae8c 30bb
00000150: 2a6f 583d 6777 24be 6c35 ddbd 47a9 debc
00000160: 18c8 afbd d5f0 36bd 9a34 c8bd
-0.108384036 -0.11540394 -0.14068264 -0.0017637303 -0.07174861 0.038412537 -0.036589723 -0.029126316
-0.068121254 -0.026844746 -0.17313962 0.06822477 -0.037296627 -0.044580687 -0.16902322 -0.019598078
-0.026735231 -0.10775449 -0.09574011 -0.061313886 0.10803343 -0.13806769 -0.035449494 -0.114334896
-0.10657537 -0.11511895 0.060314495 0.046077862 -0.105186135 -0.091417626 0.035295084 0.08484056
-0.030095585 0.054730557 -0.1286333 0.008166723 -0.09256071 0.09990021 -0.08506234 -0.015072492
-0.11247355 -0.019705733 -0.04210348 -0.1697631 -0.10422518 -0.18689476 -0.051008165 -0.13365199
-0.08067626 -0.006228528 -0.12167738 -0.12679812 -0.1866369 -0.034520395 0.12526658 -0.12629567
-0.029037768 -0.19616535 -0.09309892 -0.2288611 -0.18040699 -0.09293014 -0.001909237 -0.07884829
0.037389595 -0.24316339 -0.113267325 -0.14093128 -0.14783645 -0.15793426 -0.049205825 -0.1177228
0.045883257 -0.051630676 0.27527633 -0.1668013 -0.0991681 -0.07318564 -0.037666652 -0.14356688
-0.12746453 -0.04643434 -0.04238786 -0.002693932 0.05284039 -0.16061173 -0.10801205 -0.027180327
-0.08583087 -0.04466327 -0.09775658

model.1.running_mean f4 [91]
00000000: 48b0 993c 2e4f 99be 572a 2c3f 9e57 7a3e
00000010: 473c 05bf 78e0 ebbe 4217 03be c3a8 dd3e
00000020: 82c7 0d3f 1eb0 9f3e f5bc 17bd 4042 35be
00000030: 605d b3be 9131 47be 63d5 173d a7de ae3d
00000040: 10bc 2c3f 56aa ec3e 0554 143f 8f31 03bf
00000050: c652 76be 66f2 663e 398b 28be efff cdbe
00000060: c34d 5dbe d0d6 e1bd 5196 ef3e 0cc1 b13e
00000070: 855d 613e e8df a6be 72fa 1bbe cac8 67be
00000080: 40e7 1e3d 6ce6 fc3d d0ee 973e a953 b6bd
00000090: c364 583d 7541 4cbf b3fb 373e 54f2 c3be
000000a0: 1611 043f 148b 3e3e d2b3 063f bac9 5c3e
000000b0: 7e4f 0bbe 981e d4be e439 413d d062 fcbd
000000c0: c4b3 083e aea6 923e 765c b43e 9abf d53d
000000d0: 1866 2d3e 5048 00bf 7f33 623e 0354 65bd
000000e0: 7c1d 31bf 77a5 1bbd 14cf 6d3e 6ce1 1e3e
000000f0: ef03 683e b0c9 63bc dc53 003c 8706 a23d
00000100: 5d1f cfbe b5f6 80be 5b58 c9bd a625 bd3c
00000110: 6dfe 113f b449 2abe d6ed b53d 3483 cbbc
00000120: 0d82 32be f48f 9ebc a2ae 9fbe ccbc 0dbf
00000130: dc8f fbbd 90fe eb3e c648 2f3e e224 673e
00000140: 89b6 323e c5d2 b23e 37ef 3abe 9695 503c
00000150: 7ba3 893e b0a9 bbbe e43c 533f 455f 9ebe
00000160: ba1e 24be b260 e63e eaf3 f4bd
0.018760815 -0.29943222 0.67252105 0.24447486 -0.520451 -0.46069694 -0.12801841 0.43292817
0.5538255 0.31189054 -0.037045438 -0.17701054 -0.35032177 -0.19452502 0.037068736 0.08538561
0.6747446 0.46223706 0.57940704 -0.51247495 -0.24055013 0.22553405 -0.16459359 -0.40234324
-0.21611695 -0.110273 0.4679437 0.34717596 0.22008331 -0.32592702 -0.15232256 -0.22635189
0.038794756 0.12348637 0.29674387 -0.08902676 0.05283047 -0.7978738 0.1796711 -0.3827082
0.5158857 0.18607742 0.52618134 0.21561328 -0.13604543 -0.4142959 0.04717435 -0.123235345
0.13349825 0.28642792 0.35226792 0.10436936 0.16933477 -0.5011034 0.22089957 -0.055988323
-0.69185615 -0.037999596 0.23223525 0.15515679 0.2265775 -0.0139030665 0.007832494 0.07911401
-0.40453616 -0.25188223 -0.098313056 0.023089241 0.5702885 -0.16629678 0.08883254 -0.024842836
-0.17432423 -0.019355752 -0.31187922 -0.55366206 -0.122832984 0.46092653 0.17117605 0.22572663
0.17452444 0.3492643 -0.18255316 0.012730977 0.26882538 -0.366529 0.82514787 -0.3093206
-0.16027346 0.44995648 -0.119605854

model.1.running_var f4 [91]
00000000: 1b85 993c 777b 323c 40f2 3a3d b16f 333c
00000010: 42a1 8e3b 499c 823c bb63 453c 0a25 aa3c
00000020: d783 ec3c 2a68 2a3c 9f9e a73c 5868 1b3c
00000030: bebc dd3b 65b8 ba3b e590 cf3c ee33 fb3c
00000040: 3cb4 013d 812e 873c 40b1 313d a410 0a3d
00000050: 80a1 b33b b069 713c c3ce 453c 0fe4 d33c
00000060: 35b3 503c 3bb1 b23c bf89 283c 7556 243b
00000070: 2a57 bf3c 94f7 ea3c 8e47 8e3b 1d42 c43b
00000080: d197 2b3c 1b55 853c 533e 2c3c 0d52 0e3c
00000090: c7d6 873c 4fd3 393c e66c 423c 2d43 023c
000000a0: e33e 363c 123b d13c 42f5 6a3c b201 523d
000000b0: 5460 143d 410b 353d 3b3d 953c 6ff1 ef3b
000000c0: 776a ef3b 97b6 973b 2998 d03c ba5c 173c
000000d0: eec9 533d 970a 413c 81ca f43b 658f 6e3c
000000e0: c438 333c 1834 b23c 9d10 423c 91a9 023d
000000f0: 72ad 0f3c 53da 8f3c 3831 0a3c 041b 3f3c
00000100: cacb 093c ac4e 323c 9bfb 9e3c 3fcb 583c
00000110: df05 773c 0149 0c3d 7c2f 543c f2bc 0a3c
00000120: f59e 073c f6de e93b 6623 003c 170e ff3c
00000130: dde3 ad3c 33c7 103c dd59 9a3b 0cd5 483c
00000140: 3c84 273c be7f da3c 1395 243c 8506 053c
00000150: 9f9f b23b d24f 523c b63a 773c 6b42 263b
00000160: 58b6 023d 1a7b 3e3b c15c 003d
0.018740227 0.010893694 0.045641184 0.010951922 0.0043527195 0.015943663 0.012047703 0.020769615
0.02887146 0.010400811 0.020461379 0.009485327 0.0067668846 0.005698251 0.025337646 0.03066441
0.031666026 0.016501667 0.04338193 0.033707276 0.005481899 0.0147346705 0.012073222 0.025865583
0.012738039 0.021813026 0.0102867475 0.0025075946 0.023356993 0.028682508 0.004342026 0.0059893266
0.010473208 0.016275933 0.010512906 0.008686555 0.016581906 0.011341884 0.011866784 0.007950586
0.011123392 0.025540862 0.014340701 0.051271148 0.03622468 0.044200186 0.018217674 0.0073224823
0.007306393 0.0046299207 0.02546318 0.009238416 0.051706247 0.01178231 0.0074704294 0.014560555
0.010938827 0.021753356 0.011844781 0.031899992 0.00876938 0.01756016 0.008434586 0.011664156
0.0084104035 0.010883015 0.019407084 0.013232051 0.015077083 0.03424931 0.012950774 0.0084679
0.008277644 0.0071371747 0.00782094 0.031134648 0.021226818 0.008836555 0.0047104196 0.012257826
0.010224398 0.02667224 0.010045308 0.00811923 0.005451157 0.012836413 0.015089681 0.0025369178
0.031912178 0.0029065073 0.031338457

model.4.weight f4 [68, 91]
00000000: 281b 0a3d 5222 6dbd 9cbd 80bb e29a 67bc
00000010: 1c4a 40bd 4d81 48bc ba4a 2bbe 5f74 eb3d
00000020: 2ffb 97bd e293 98bd b705 87bc 4f0c 84bd
00000030: 84b7 11be 7e26 4fbd dd12 fcbd ff09 183c
00000040: 4284 43bb 8711 af38 3d49 25bd 5ac8 f0bd
00000050: 6c44 ae3d c66b 0fbe 5592 9fbd 43d7 22bd
00000060: 20b9 633d ac0a 0b3c 1f4f 4c3d 5e24 8ebc
00000070: 97b0 de3d 0b37 17be 925c dbbd 383b b4bb
00000080: fd12 d93d 436f ccba b0ed 863d 8b2f 27be
00000090: fa5f 143d 0e0f f9bc 05c5 acbd 5b7b fb3d
000000a0: 03fc 05be 59dd 2a3d df06 00be e25e 4dbd
000000b0: 858b 0a3c 70f4 dfbd 9cc7 a73d f8ab 08bd
000000c0: 108b e8bd 5246 32bc 9a8d d93b 216d 44be
000000d0: ba74 5cbd c2be e13c 8b65 aabd 37b4 8bbd
000000e0: 8713 61bd 531d 263d ce89 9f3d db71 963c
000000f0: 66c4 463d 8730 2cbe a87d 5a3d 259d 05be
00000100: c309 32bd 977c 8dbd fa86 ccbb d4ea a13c
00000110: 63e7 8b3d 3835 a93d bc78 29be 6889 c73a
00000120: fd32 7cbd b9cd 19bd 8163 90bd 1224 63bd
00000130: 5159 36be ef35 98bd a6bc d13d 8d69 4d3c
00000140: 3fcd 2abd df57 f6bc 8bc7 1bbd 0db9 a5bc
00000150: bcba 843d 3430 0d3e 565a 053e 5937 f83d
00000160: 94ba b1bd faca 3d3d 2f19 24bc 9c3c 3fbb
00000170: b4c8 8cbd eb68 3abd b315 b03e 6af2 11bd
00000180: 5223 8bbd dbf8 013c e62c e73d f5d5 913d
00000190: fa0b 07bd 12bb 303d 0624 34be 9483 ea3c
000001a0: a938 80bd a1a8 a1bd 1531 463c 60e4 493e
000001b0: a73a c13d 4fce 9e3d d1c5 4cbe dcfb b1bd
000001c0: 8b8f bbbd 6367 63bd d4bc 2bbd e3db 98bd
000001d0: f068 31bd d76d 3d3d b932 20be a664 5c3d
000001e0: 57a9 ed3c 4814 383c a5e0 723d d246 aabd
000001f0: e958 24bd f2f2 b3bd 1564 de3c 4a9d 2e3d
00000200: f8d8 50be 6e5f d0bd ab96 3abe b097 713d
00000210: bf6e 5c3e 0520 063d 87ec b23d a2ec 503d
00000220: c255 b43d 96f1 083e 2e02 e5bd 4af2 a7bd
00000230: 9449 74bb 1f06 8ebd 14c9 d0bd 6ccd ef3d
00000240: d453 56bb 2dbd c93d 3382 32be a858 c3bd
00000250: 0d8b 6abd 2f7c bc3c 9c57 e7bc d56f 0e3d
00000260: 7360 9dbd a9a1 af3d af70 013e 73d9 a7bc
00000270: 7ec1 c13d 030f afbd ac25 6ebd 41e9 f43d
00000280: ede9 b23d 0f90 e53d ea9e 1a3d 5cc7 d5bd
00000290: c720 8a3d 51a2 94bd ff39 023e 73c3 b13d
000002a0: ffb7 123e ade6 8bbd 77cd 123d d7b6 c93c
000002b0: 691a 733d 3693 a1bd 40e9 adbd 248f 523e
000002c0: a1e2 6cbd 1597 e63d daa5 c8bc b88d 45bd
000002d0: c7a9 bdbd 8938 2abd e66b 07bd 831b e9bc
000002e0: eb74 39bd 0e08 7bbd 9e56 df3c 9b65 b13d
000002f0: c150 4cbc 9137 d0bd 5bca d23d 57c1 e23c
00000300: 4151 a1bd ebdf 323c 2abf 673d 3717 17be
00000310: b98f 0dbd 3777 343d d3ec 893d 4fe6 8cbd
00000320: 7f76 07bd 45fe cebd 75bb c4bd b0da 00bd
00000330: 01e6 d23c 5836 f23c ab06 b13d 808c 073e
00000340: f1c4 c53d 7f80 dfbc 6f15 ccbd 7c1a 963d
00000350: 42ad 0e3d 96c5 b8bd a31c 19bd 18d6 95bc
00000360: 8975 d3bd 8b32 cfbd a9a4 96bd 3b7d fa3c
00000370: b442 c7bd c096 e1bd 0bd2 173c d010 dc3d
00000380: 4a8d b7ba 0c96 aebd 5921 0a3e 5bbd 0cba
00000390: 865e 073e 797a 2abd 9fbc 723d 7344 dcbc
000003a0: beb3 1a3e e7b1 8a3d d654 a6bd fab4 edbc
000003b0: 88f9 f83d 1167 75bd df7a 62bd 2919 c23d
000003c0: 2421 7c3d 1370 a4bc d3e9 973c 18bc 54bd
000003d0: 92f2 c1bd a661 823a 6f55 953d c5a6 a73c
000003e0: 9cc5 673a 2edc 9fbd af65 f9bc b06e 8cbc
000003f0: dc18 6c3c c965 eebb 689b 05bd d5ac 603d
0.033717304 -0.05789406 -0.003928853 -0.014136048 -0.046945676 -0.012237859 -0.16727725 0.114968054
-0.07420956 -0.074500814 -0.016482217 -0.0644766 -0.14230162 -0.05057382 -0.123082854 0.009279727
-0.002983347 8.347915e-05 -0.04035305 -0.11756964 0.08509144 -0.14005956 -0.077915825 -0.03975607
0.05559647 0.008486431 0.049880143 -0.017351326 0.108735256 -0.14767091 -0.10711016 -0.0055002235
0.10599325 -0.0015597123 0.06588304 -0.1632673 0.036224343 -0.030402686 -0.08436016 0.122793876
-0.13084416 0.041715 -0.12502621 -0.050139315 0.008456116 -0.10935295 0.08192369 -0.033367127
-0.11354649 -0.0108810235 0.0066391947 -0.19182254 -0.053822257 0.02755678 -0.08320149 -0.06821483
-0.054950263 0.04055531 0.07789956 0.018364837 0.048527144 -0.16815387 0.05334249 -0.13048227
-0.04346634 -0.06908529 -0.0062416764 0.019765295 0.06831243 0.08262104 -0.16549963 0.0015223445
-0.061572064 -0.037549708 -0.07050229 -0.05545432 -0.17807509 -0.07432162 0.1024106 0.012537372
-0.041699644 -0.030071197 -0.038032096 -0.02022984 0.06480929 0.1378792 0.13022742 0.12119932
-0.08678165 0.04633615 -0.01001577 -0.0029180413 -0.068742186 -0.045510214 0.34391555 -0.035631575
-0.06793846 0.007932867 0.112878606 0.07120887 -0.032970406 0.043147154 -0.17591867 0.028627194
-0.06260807 -0.078934915 0.012096663 0.19716024 0.09435015 0.07754194 -0.19997336 -0.086906165
-0.09158238 -0.05551852 -0.041928127 -0.07463815 -0.043312967 0.04624733 -0.15644349 0.053806923
0.029011412 0.011235304 0.05929627 -0.08314289 -0.040123854 -0.087865725 0.027147332 0.04263047
-0.20395267 -0.10174452 -0.18221538 0.05898255 0.21526621 0.03274538 0.0873652 0.05100692
0.088054195 0.13373408 -0.11182056 -0.0820051 -0.0037275301 -0.06934761 -0.101946026 0.11709103
-0.0032703774 0.098505355 -0.1743248 -0.09538394 -0.057261515 0.023008434 -0.028240018 0.03477462
-0.07684412 0.08575756 0.12640642 -0.02048943 0.09460734 -0.08547785 -0.058141395 0.11958552
0.08736024 0.112091176 0.03774921 -0.104384154 0.06744533 -0.07257522 0.12717436 0.08679857
0.14328001 -0.06831107 0.035840478 0.024623318 0.05935136 -0.078894064 -0.084917545 0.20562416
-0.057833318 0.11259285 -0.024493147 -0.048230857 -0.09260898 -0.041557822 -0.033061884 -0.028455501
-0.045277517 -0.06128698 0.027262982 0.08661958 -0.012470425 -0.101668485 0.102925025 0.027680082
-0.07876826 0.010917644 0.056578793 -0.1475495 -0.034560893 0.044059005 0.06734624 -0.068798654
-0.03307199 -0.10107092 -0.09606067 -0.031458557 0.02574444 0.029566929 0.0864385 0.1323719
0.09656704 -0.027282951 -0.09965026 0.0732927 0.0348332 -0.090220615 -0.037380826 -0.018290564
-0.103251524 -0.10117062 -0.07355625 0.030577293 -0.097295195 -0.110150814 0.009266387 0.10745394
-0.0014003899 -0.08524713 0.13489284 -0.00053687923 0.13219652 -0.041620705 0.059261914 -0.026888108
0.15107629 0.067722134 -0.0812165 -0.02901696 0.12156969 -0.059912745 -0.05529296 0.09477455
0.061555043 -0.020072972 0.018544113 -0.051937193 -0.09470095 0.0009947314 0.07291686 0.020465264
0.0008841397 -0.07805668 -0.030443994 -0.017142624 0.014410224 -0.0072753173 -0.03261891 0.054852325

model.4.bias f4 [68]
00000000: 87d5 d3bd 117b 72bd 58a1 77bc 0429 353d
00000010: 2c7f 2a3c b528 c3bd 371a c33d 44f7 463c
00000020: d5cf 41bd e8d3 7dbc 69fe 72bd 9c10 8cbd
00000030: bab8 5abd 7e8c 50bd 9897 c7bd 3cef 663d
00000040: de2f 9d3c 1fac dbbc 7855 5d3d 7492 8d3b
00000050: 16a0 63bd d26a cc3d 08c3 6d3d c4ae 533c
00000060: 6990 b33d 714d 6abd 6a79 bd3d e52f 253d
00000070: 6bec b0bd db7d 30bd beb5 a03d 06ff c0bd
00000080: 68b1 e93c 3010 4f3c ea01 a13d 2ee1 c43d
00000090: 50b1 06bd fb00 97bd 5d82 1dbb f7e9 6a3b
000000a0: 5c71 c93c 27f6 0f3d 2065 c0bd db04 b8bd
000000b0: 2fdf 563d 0247 d23d 1253 6ebc 3080 50bc
000000c0: ae4f 7fbd 122e cdbc bf60 b4bd 56e0 c6bd
000000d0: c12b 10bd bab3 c73d fdd9 183d f148 94bd
000000e0: 53a0 ce3d 98e5 433c daec 7b3d 7c6f cabd
000000f0: 043e 403c f84f c4b9 05af f33c 5267 973d
00000100: 3a38 2dbc e376 af3d 6956 81bd 01fc be3d
-0.103434615 -0.059199397 -0.015114151 0.04422857 0.010406297 -0.095292486 0.095264845 0.012143914
-0.047317345 -0.015492417 -0.059324656 -0.068391055 -0.053398825 -0.050915234 -0.09745711 0.056380495
0.019187864 -0.026815472 0.054036587 0.004320437 -0.05557259 0.09981312 0.058047324 0.012920085
0.087677784 -0.05720276 0.092516735 0.04032888 -0.08638843 -0.043088775 0.078471646 -0.09423642
0.028526977 0.012638137 0.07861693 0.09613262 -0.032883942 -0.07373234 -0.0024034001 0.003584502
0.024590187 0.03514686 -0.09394288 -0.08985301 0.05245894 0.1026745 -0.014546173 -0.012725875
-0.062331848 -0.025046382 -0.08807515 -0.097107574 -0.035197977 0.09751077 0.037317265 -0.07240475
0.10089173 0.011956595 0.061505176 -0.09884545 0.011733536 -0.00037443615 0.029746542 0.07392754
-0.0105724875 0.08567598 -0.063153096 0.0932541

model.5.weight f4 [68]
00000000: f2ab 563f 16ac 8a3f 4325 4c3f 3229 6c3f
00000010: 5222 593f 09d3 863f f4cd 833f 45fd 7b3f
00000020: 640a 7c3f ced8 8d3f 3ed2 6c3f 76ef 883f
00000030: 7eff 5f3f fe6d 863f ca29 8a3f c676 583f
00000040: af1e 7d3f 41be 7e3f 0993 6f3f cc06 8b3f
00000050: 58a2 853f 833c 753f 3644 633f a723 7f3f
00000060: 2343 773f 714a 823f 8db0 713f 204e 6b3f
00000070: 9e55 833f b086 803f bf7f 703f 4259 843f
00000080: c554 813f 46b7 7e3f 7f9c 863f 762f 823f
00000090: 7329 673f 1dcb 793f 1e1e 813f 3735 763f
000000a0: dd3a 853f e625 7b3f 17f1 683f 5ad9 793f
000000b0: fe6c 833f 07f7 953f d584 773f 2371 6f3f
000000c0: 2bab 823f 651e 7d3f 7f0a 793f 3bab 843f
000000d0: 1f1c 683f 59ec 813f b2e8 623f 8c6e 8a3f
000000e0: 9258 8d3f 90fd 783f c4f7 683f 5835 843f
000000f0: e0da 793f 08f1 7c3f b6bc 6d3f 40eb 8d3f
00000100: 4628 8e3f 1a8c 7f3f 5948 883f fc6f 673f
0.8385612 1.0833766 0.79744357 0.9225036 0.84817994 1.0533153 1.0297227 0.98433334
0.98453355 1.1081789 0.92508304 1.0698078 0.87499225 1.0502317 1.0794003 0.84556234
0.98874944 0.99509054 0.9358373 1.0861449 1.0440168 0.9579546 0.88775957 0.99663776
0.9658682 1.0178968 0.9441002 0.91916084 1.0260503 1.0041103 0.93944925 1.0339739
1.0103995 0.99498403 1.0516509 1.0170734 0.9029762 0.9757555 1.0087316 0.9617495
1.0408589 0.98104703 0.90992874 0.9759728 1.0267637 1.1716012 0.9668706 0.9353201
1.0208486 0.98874503 0.9728164 1.0364755 0.9066791 1.0150253 0.88636315 1.0814986
1.1042655 0.97261906 0.9100306 1.0328779 0.975996 0.98805285 0.92866075 1.1087418
1.110604 0.99823153 1.0647079 0.9040525

model.5.bias f4 [68]
00000000: 6d51 13be a679 0d3e 4b46 07be 4305 38bd
00000010: 61d7 81bd fc54 ccbd 3610 bebd 8473 dbbd
00000020: ab0a 6e3c bf5d f9bd 24f2 84bd 20aa 2c3c
00000030: 13a7 1e3c dfdd 043e c93c a33c c01a 11be
00000040: 224e babd db47 86bd 1695 0dbe f018 34bc
00000050: c829 913d 73d8 6dbd e37f efbd 01eb 83bd
00000060: 5e20 96bd 8d9a 823d 72ee 95bd a109 3bbe
00000070: 4d9a bd3d 2a10 0fbd ac55 0dbd 6288 05bd
00000080: dff6 ff3b 1181 e4bd 4beb 52bc 1f5b 873d
00000090: 3a36 3fbd e6fa 463d 8162 cdbd 1499 8abd
000000a0: 0a59 9dbd 69f6 05be 1d6e 4fbd 11a7 20be
000000b0: b2cd e53d 932b 1e3e d688 e3bb 436b 88bd
000000c0: 7791 0d3d b0f2 80bd bf7a 17bd de0e 9bbd
000000d0: cd0c a5bd e032 f63c 6d78 18be c99b 00bd
000000e0: 24af 8e3e 5c63 653c 0d74 6abd 0725 de3b
000000f0: ba7c 8b3d 7429 c13c b407 7bbd ba4a a93d
00000100: 3c3e a2bd 4927 dbbc 9e38 013d a292 37bd
-0.1438653 0.13815936 -0.13210408 -0.044926893 -0.063399084 -0.09977147 -0.09280436 -0.10715392
0.014528911 -0.12176084 -0.06491497 0.010538608 0.009683388 0.12975262 0.019926446 -0.1417036
-0.09096934 -0.06556674 -0.13826403 -0.010992274 0.07088047 -0.05806775 -0.11694314 -0.06441308
-0.07330392 0.063771345 -0.073208705 -0.18265392 0.09257946 -0.034927525 -0.03450553 -0.032600768
0.0078114117 -0.1115743 -0.012873481 0.06609177 -0.046682574 0.04857912 -0.10028554 -0.067674786
-0.076829985 -0.1308228 -0.05064212 -0.15688731 0.11220874 0.1544631 -0.0069438023 -0.066610835
0.034562554 -0.06296289 -0.036982294 -0.07571195 -0.08059082 0.030053556 -0.14889689 -0.03139857
0.27867997 0.01400074 -0.05723958 0.0067793163 0.06810899 0.023579337 -0.061286643 0.08266206
-0.079220265 -0.026752131 0.031548135 -0.044817574

model.5.running_mean f4 [68]
00000000: d0bc 6bbf 4ddd 1abe d2d4 d5be 534c a5be
00000010: 9f11 16bf 34d2 cc3e 20a5 ab3f 0e41 5d3e
00000020: c151 d93e f893 593f ce9a 49bf e661 3dbc
00000030: 3a70 b2bd f923 47bc 1e9f b63c 0b49 aebe
00000040: c762 6cbb a5e6 69bd b90b 0e3f 3ecb 29bf
00000050: 1c8d 6e3d 2d93 423e cb33 f43e aaee e63e
00000060: bcbb 1d3f 16e0 57be 8e6b afbb d500 b5be
00000070: 0864 17be 14d8 1abf 7403 883e 42ea 92be
00000080: 247b 0ebf 495f 14bf 69a7 783e 2b47 42bd
00000090: 50b6 26bf a9d9 19bf 5a36 363f 66a2 8ebe
000000a0: 26d0 1d3f 45bb fc3e 85fd ebbe d0b5 0bbe
000000b0: fe16 f2be 09a9 bebf f960 bebd 6bf1 983e
000000c0: 932e 893e bbf4 c13d 0838 a7be 697c fd3d
000000d0: 5557 11bf 3e0d 2f3e 3075 bf3c 5be2 3fbf
000000e0: 87fc 24bd 32b5 e2bd 2e5e 2cbe 2dff 10bf
000000f0: 5e6b 08bf c099 29be b7d2 963e 8677 c83b
00000100: fb5b e73e 0564 053f e630 cdbe 7fb4 3abf
-0.9208498 -0.15123482 -0.41763932 -0.32284793 -0.5862064 0.40004122 1.3409767 0.21606848
0.42445186 0.8499141 -0.7875184 -0.011558985 -0.08712812 -0.012154573 0.02229267 -0.34040102
-0.0036069618 -0.057104725 0.5548664 -0.6632575 0.05824004 0.19001456 0.47695765 0.4510396
0.61614585 -0.21081576 -0.0053533977 -0.35352197 -0.14784253 -0.6048596 0.26565135 -0.2869435
-0.5565665 -0.57957894 0.24282612 -0.047431152 -0.65121937 -0.6009775 0.71176684 -0.27858275
0.61645734 0.49361625 -0.46091858 -0.13643575 -0.47283167 -1.4895335 -0.0929584 0.29871687
0.26793346 0.09470507 -0.32659936 0.12377245 -0.56773883 0.17094895 0.023371309 -0.74954766
-0.04027989 -0.110697165 -0.16832802 -0.5663937 -0.5328883 -0.16562557 0.29457638 0.006117764
0.45187363 0.5210574 -0.4007637 -0.72931665

model.5.running_var f4 [68]
00000000: a57f 113f 2495 ba3f 18e9 523f 3e19 8b3f
00000010: 477b 233f f512 ce3e e0b7 183f 2c50 3d3f
00000020: 2435 683f 6c0a 393f 1322 073f 6965 533f
00000030: 4d56 0e3f 7c50 253f c45a 483f 9303 113f
00000040: 5072 0e3f c00f 023f 1517 503f 354b 393f
00000050: 83cf 783f add4 083f e0b3 213f 049f 8a3f
00000060: cf96 e73e 1a13 3c3f ac49 8c3f 3227 ef3e
00000070: 752a a23f 6752 793f 6249 543f e729 aa3f
00000080: 8f9e 6c3f 0a60 833f 3425 813f a4de 1c3f
00000090: ca0d 473f edc8 8f3f 54c4 cc3e 150a 6b3f
000000a0: a51b 103f a28d 193f 3d46 8c3f 0991 f53e
000000b0: 2bfd 283f eb71 943f d52b 213f 4769 c93e
000000c0: a50e 8f3f 7b86 373f 9e5d e73e 2af1 193f
000000d0: b67a 7d3f f413 ce3e a855 253f 7e21 d13e
000000e0: 1de3 853f 6fd5 c93e f8bc f93e 2a0d ae3f
000000f0: 9953 153f 7fff 8f3f 575f 003f 6d4f aa3f
00000100: e19c 113f 3c8b 1b3f 4311 9a3f afc9 ef3e
0.56835395 1.4576764 0.8238692 1.0867078 0.6385998 0.40248838 0.5965557 0.7395046
0.90706086 0.7228153 0.5278637 0.82576615 0.55600435 0.64575934 0.782635 0.5664608
0.5564318 0.5080528 0.8128522 0.7238038 0.9719164 0.5344952 0.6316509 1.0829778
0.45232245 0.73466647 1.0959983 0.4670959 1.2669207 0.9739136 0.82924473 1.3294038
0.9242944 1.0263684 1.0089478 0.6127722 0.77755415 1.1233193 0.39993536 0.9181226
0.5629218 0.5998174 1.0958935 0.47962216 0.66011304 1.1597265 0.6295751 0.39338133
1.1176344 0.71689576 0.45188612 0.6013361 0.9901537 0.40249598 0.64583826 0.40845865
1.0459934 0.3942065 0.48776984 1.3597767 0.58330685 1.1249846 0.5014548 1.3305489
0.56880003 0.6075933 1.2036518 0.4683356

model.8.weight f4 [54, 68]
00000000: 346b d43c 75fd 833e da2c 62bb a832 c3bc
00000010: 2eb2 a4bd 4093 a73d 89be 96bd b24a 7bbd
00000020: 36da 253e 1459 1d3c 968d febd cccb 393d
00000030: d22d df3d c95e bb3d 44b6 143d a9db c2bc
00000040: 76a4 2fbe b8c6 9c3d baba 8f3d 53ed 03be
00000050: 1257 0fbd 01c2 db3d 9c5a a73c 5257 64bc
00000060: ed62 cbbd 2ec3 af3b c697 b83c 13d7 a9bb
00000070: ab96 a63d 86f5 c2bb 0d4f ea3d 37e9 063e
00000080: 7851 e5bb bfc6 9a3d 1d8d 1e3d dbf2 c53c
00000090: 2ca8 433d ab44 05be 2fc6 41bb e756 bebc
000000a0: 1fe6 a4bd e32b 5c3d a6ac da3a 88e9 0cbe
000000b0: ea03 0bbd 30d9 67be 834a c03d f48e 9d3d
000000c0: c1b7 4b3e 5e13 19bc 8a07 8d3c 8dc3 68bd
000000d0: aca3 c23d f9a5 9f3d c26b f9bd cd72 ac3d
000000e0: 66f2 32be b4d2 afbd 70ae 9e3d 4e80 98bd
000000f0: 1adb 883c cbde 9dbc d3d2 7abd d5ac 01bc
00000100: db93 b3bc 1190 b33d 1a24 48bc dc0f d23d
00000110: 4718 1e3d ceb3 973d 6173 5abc 0ff8 263d
00000120: c074 d6bc 00b1 69bd 1852 383e fbc4 b83d
00000130: cd02 92bc 9d35 c93d f6b7 253d e5a1 2a3d
00000140: 7509 94bb 0b91 45bc 1028 3abe a297 08bd
00000150: c72e 44ba 62bd 4ebd 7cac b83c 0ca2 75be
00000160: b730 99bd e41b 163d 7561 e1bd 3bc6 f1bb
00000170: 724a 96bd 6561 1bbe f32f 8dbd 2e97 e03c
00000180: a94d 08be 2bc7 11be bcb5 d2ba 81da 4cbe
00000190: 8fc3 c63d 951f 723d d460 d1bd 490b 6ebd
000001a0: bd40 b03b 01d6 5d3b dd3f 14bd cfea 773c
000001b0: 3eda e2bd 8137 2a3e fc15 6cbd d10d e43b
000001c0: 6882 14bd 3363 923d 8ab3 aabd 7547 db3d
000001d0: ff36 893d abb7 09be 1fd4 1d3e 1eb4 27be
000001e0: 2197 fe3d 076b 7d3d 8575 04be eddd 16bd
000001f0: 2183 dbbc a93f 68bd a3e7 8a3d 4500 ccbc
00000200: f59f 253c 3e2f 19be 1e4d 0cbe 2f1f 1bbe
00000210: 7bb7 fbbd 969a 743d d1d1 43be 4966 46bd
00000220: f1ef 2f3e 77f7 b5bd 577c f5bb 9063 203e
00000230: bc9d 94bd 6e26 513e daf0 063d 8a86 47bc
00000240: b6ec 9ebd 9679 debb 3757 3d3d ca4a b6bd
00000250: e5dc 21be eab3 403d cc9f 77bd 6295 723d
00000260: 7229 f4bd 7987 8a3d 1228 57bc a586 923d
00000270: ddf4 45bd 5603 473d c4ac 9c3d 48ad 0fbe
00000280: fa96 4f3d 03c5 b13b 467f 2b3e 1b29 d23d
00000290: 173e 2c3d 0b43 583e fea7 9cbc 3b6a e6bc
000002a0: 39d0 5bbd 564c 66bd 9c99 37bd 4b5e 6d3c
000002b0: bfc7 883d 50d8 f9bd 652e 82bd 3c06 bb3c
000002c0: ddcf 863e a57c cc3d 9274 b3bd a10e 97b9
000002d0: 5182 b33b 18a9 30be d01d ea3d e1c3 683d
000002e0: 574e afbc e562 f4bd 674a dfbd fb7a 08be
000002f0: 0f70 803c 4ba5 1d3c bb0d 36be ce8b 153e
00000300: d0a7 c0bc 63cf 023e 3dc5 fb3d ff6e 163e
00000310: a5e2 a03d c819 a3bc 9905 e93b c37e 703c
00000320: b07b 443e 033a 513d b509 0bbe 9181 36bd
00000330: 1918 dd3d b306 473e 8115 9abd 4d3e 1fbd
00000340: 1a44 0d3e f725 aebd 913d 0e3e 9d97 113d
00000350: d8cf 73bd cc1f 9b3d fc31 3ebe 1a20 98bd
00000360: 2017 143d 903f 50be 00db 3ebe b280 8f3c
00000370: bb6e 0bbe 1966 a6bc d04c edbd dacb d9bd
00000380: 52a8 a4bd acc2 64bd 8697 d93c b7d5 c5bd
00000390: 799c 22bd a07c dbbc 25bd 67bd 56e8 9a3d
000003a0: 4032 723d 109c 29be 8d32 2f3e bcc9 55bd
000003b0: 7517 163e ff7f 40bd 12bf 3d3c 3953 8e3d
000003c0: 74fd 27be 23d9 bc3d 9721 d63d 1d02 a6bd
000003d0: 7380 023d 9295 bb3d c940 bfbc 4f4a 5e3d
000003e0: 4407 a6bb 64be 1abd 1eeb 093e f5a8 33bd
000003f0: fe0d 813d 1d73 663c 75c5 38b9 3df7 bbbd
0.025930025 0.2577931 -0.0034511597 -0.023827866 -0.080417976 0.081823826 -0.073605604 -0.061350532
0.16196522 0.009603757 -0.12429349 0.04536037 0.108974114 0.09148938 0.036306635 -0.023786383
-0.1715258 0.0765509 0.07018037 -0.12883501 -0.034995146 0.10730363 0.020428948 -0.013936834
-0.09930978 0.0053638434 0.022533309 -0.0051831095 0.081342064 -0.005949679 0.11440859 0.13174902
-0.006998237 0.07557439 0.038708795 0.024163654 0.047767803 -0.13014476 -0.002956759 -0.023234798
-0.080517046 0.05375279 0.0016683533 -0.1376096 -0.03393928 -0.22641444 0.09389212 0.07693282
0.19894315 -0.009342996 0.017215509 -0.056827117 0.09503874 0.07795329 -0.12178756 0.08420334
-0.1747528 -0.0858511 0.07748115 -0.07446347 0.016706038 -0.019271275 -0.061236214 -0.0079147415
-0.021921089 0.08767713 -0.0122156385 0.10256931 0.03859737 0.07407342 -0.013333173 0.04076391
-0.026178718 -0.057053566 0.18000066 0.09021946 -0.017823601 0.09824679 0.040458642 0.0416583
-0.004517729 -0.012058507 -0.18179345 -0.033347733 -0.0007483777 -0.05047358 0.022543184 -0.23987597
-0.07479995 0.036647692 -0.110049166 -0.0073783672 -0.07338418 -0.15173872 -0.06893911 0.027415838
-0.13310875 -0.14236133 -0.001607589 -0.20005228 0.097052686 0.05911215 -0.102235466 -0.05811623
0.005378811 0.003384948 -0.036193717 0.015131666 -0.11076783 0.16622736 -0.057638153 0.006959655
-0.036257178 0.07147827 -0.083350256 0.10706989 0.06699943 -0.1344897 0.15412949 -0.16377303
0.12431169 0.061869647 -0.12935455 -0.03683274 -0.026795926 -0.056701336 0.067824624 -0.024902472
0.0101089375 -0.14959428 -0.13701293 -0.15148614 -0.122908555 0.059717737 -0.19123007 -0.04843739
0.17181374 -0.08885091 -0.007491629 0.1566298 -0.07256648 0.20424816 0.032944538 -0.012178073
-0.07759993 -0.0067893965 0.046225753 -0.08900984 -0.15806921 0.04704658 -0.06045513 0.059224494
-0.119219676 0.067641206 -0.013132112 0.07154588 -0.048329223 0.048587166 0.0765014 -0.14030945
0.05068109 0.005425097 0.1674777 0.102617465 0.0420514 0.21119325 -0.019123074 -0.028126827
-0.053665373 -0.056225143 -0.044824228 0.014487813 0.066787235 -0.121994615 -0.06356505 0.022830121
0.26330462 0.099847116 -0.087624684 -0.00028811864 0.0054781814 -0.17252004 0.114314675 0.05682743
-0.02139966 -0.11932925 -0.10902863 -0.13328163 0.015678434 0.009621928 -0.17778675 0.14604113
-0.02351752 0.12774424 0.122934796 0.14690779 0.07855729 -0.019909754 0.007111263 0.01467866
0.19187808 0.051080715 -0.13577922 -0.044557158 0.10795612 0.1943615 -0.07523633 -0.038877774
0.1379551 -0.08503335 0.13890673 0.03554498 -0.059524387 0.07574424 -0.18573755 -0.07427998
0.036154866 -0.20336747 -0.1863823 0.017517421 -0.13616459 -0.020312356 -0.115869164 -0.10634585
-0.08039917 -0.055849716 0.02656151 -0.096599035 -0.039700005 -0.026792824 -0.056576867 0.07563846
0.059129953 -0.1656344 0.17109127 -0.052194342 0.14657386 -0.046997067 0.011581199 0.06949467
-0.16405278 0.09221103 0.104556255 -0.08105872 0.03186078 0.09159388 -0.023346322 0.054270085
-0.005066784 -0.037779227 0.13468596 -0.0438623 0.06301497 0.014065531 -0.00017621166 -0.09178016

model.8.bias f4 [54]
00000000: 7181 dd3d 8521 86bd 3d29 9cbd b472 d33c
00000010: 4824 54bd a91e 00bd 9be1 49bd fbd7 5a3d
00000020: 35e2 683d a6c6 99bd db23 8bbd ecc6 9c3c
00000030: 285c ba3d 66cd 7a3b c4a2 57bd 2c5c 5e3d
00000040: cc0b dabd 4159 ac3d 5e92 2e3d ab43 8bbb
00000050: b8de 0dbd 431c 5abd 708c 3bbd ea41 7a3d
00000060: aca8 9f3d a68a e23d 719b 47bd 6c39 6a3d
00000070: 748a 923d 85d2 6abd 0f98 e23d 8582 abbd
00000080: f00b a63d 0b27 cbbd ba35 b9bc c0f8 b53d
00000090: fc11 603c 19be c3bd 6cf3 913d 8837 d0bd
000000a0: 230a 683d 211e b33d 5fde b6bc 9ae8 f13c
000000b0: 916c 01bd 0665 b23c dc06 373d d6b8 6b3d
000000c0: f7c7 4bbd 5c43 eb3d 0ca5 85bc 3979 9dbd
000000d0: cf05 dbbd b888 9cba
0.108157046 -0.06549362 -0.07625053 0.02581153 -0.051792413 -0.03127924 -0.04928742 0.05342863
0.056856353 -0.07508592 -0.06793948 0.019137822 0.09099609 0.00382694 -0.05264546 0.05428712
-0.10646781 0.08415461 0.042620055 -0.00425001 -0.03463623 -0.05324961 -0.04578823 0.061098017
0.077958435 0.11061601 -0.048732225 0.057183668 0.07155314 -0.057329673 0.11064159 -0.08374504
0.08107746 -0.09919556 -0.022608627 0.08885336 0.013676163 -0.095577426 0.07126507 -0.10166842
0.056650292 0.08745981 -0.022322832 0.029529858 -0.031597678 0.021776687 0.044684276 0.05754932
-0.04975125 0.11487457 -0.016314052 -0.07689137 -0.10694467 -0.0011942601

model.9.weight f4 [54]
00000000: 90a3 6f3f e58c 773f 4a54 8a3f c8a4 7b3f
00000010: eb79 783f 0983 8e3f 4420 793f 623c 6c3f
00000020: 10f8 6e3f 6bdf 6a3f 9ba3 883f 3b52 8d3f
00000030: a70d 8c3f 08e3 6a3f 1f99 553f 0e17 943f
00000040: e5dd 873f 4354 763f 679b 873f a161 833f
00000050: 1e4e 813f 9d1b 8a3f b70e 7e3f be11 823f
00000060: 2478 863f 96b7 7f3f 6b40 733f b873 7d3f
00000070: f3d3 873f 2488 6b3f 8b49 723f 98b9 613f
00000080: 8626 823f afdd 7e3f 1d63 843f ba02 843f
00000090: 4a23 863f 36c1 823f 7982 813f 9957 663f
000000a0: 0027 7f3f 7c37 783f a84c 673f 694b 853f
000000b0: 29b6 593f d8ec 693f 9db2 8b3f 2dfe 813f
000000c0: c126 893f 59ad 8a3f a134 683f 4169 7e3f
000000d0: 6f19 7e3f 116b 713f
0.9360895 0.96699363 1.0806973 0.9829831 0.9706103 1.1133739 0.9731486 0.92279637
0.93347263 0.9174716 1.0674928 1.104072 1.0941666 0.9175267 0.8343677 1.1569536
1.0614592 0.96222323 1.05943 1.0264169 1.0101964 1.0789677 0.99241203 1.0161664
1.0505414 0.99889505 0.9502017 0.990047 1.0611557 0.9200461 0.9464347 0.8817382
1.0168006 0.9955701 1.0342747 1.0313332 1.0479519 1.0215213 1.0117942 0.89977413
0.99668884 0.9695966 0.90351343 1.0413638 0.8504358 0.9137702 1.0913883 1.0155693
1.0714952 1.0834152 0.90705305 0.99379355 0.9925756 0.94303995

model.9.bias f4 [54]
00000000: 2022 76bd 3df6 2b3b d192 8a3d 0880 103b
00000010: 1fd5 2fbe 6d29 99bd e606 a7bd b61f 21be
00000020: 9048 40bd bc93 e5bc 5b7e 8f3d 15cd 853d
00000030: adde 8dbc 5f33 69bd 4d74 5ebe bb5a 03bd
00000040: 5d5a 2bbd 4274 a9bd b2aa a63c c203 543d
00000050: deac 53bc e785 9d3c 48fb 1d3d 599f d3bc
00000060: ea48 a0bd 0f75 263c 95a7 7cbb b826 0dbc
00000070: 8aa0 d93d 2976 713c adba c03c 12ea 45be
00000080: 19f9 7b3b 99bd be3c 0284 983c 541e 8d3d
00000090: 0b31 13be 677d 763d 38a6 103d a2fa f1bd
000000a0: e659 4c3c 6e2c 2d3d c653 ccbd 031f 1cbb
000000b0: 51c0 14be 453a adbb 8718 aa3d 5d24 53bd
000000c0: d95a 973d a462 e43d 4fe2 03bd 4450 82bd
000000d0: 4da9 b9bd 1b8d d83b
-0.060091138 0.0026239299 0.06766284 0.0022048969 -0.17171143 -0.074786045 -0.08155613 -0.15734753
-0.0469442 -0.028024547 0.07006522 0.06533257 -0.017318094 -0.056933757 -0.21724053 -0.03206895
-0.041834224 -0.082741275 0.020345066 0.051761396 -0.012919633 0.019228889 0.03856972 -0.025832819
-0.07826407 0.010159745 -0.0038552035 -0.008615188 0.106263235 0.014737644 0.023526514 -0.19327572
0.0038448034 0.023283767 0.018617634 0.0689055 -0.14374177 0.060178187 0.03531477 -0.118153825
0.012472605 0.0422787 -0.09976916 -0.0023822195 -0.14526488 -0.0052864873 0.083054595 -0.05154835
0.07390375 0.11151627 -0.032198247 -0.06362966 -0.09065495 0.006608618

model.9.running_mean f4 [54]
00000000: b5e3 7b3e 70d5 44bf 39a4 1b3e 33bc 65be
00000010: eeca 4c3f f071 acbe 2f69 d33e f3bb 353f
00000020: 0128 dbbe 3b2b 7a3e ae71 f2be db1b 073e
00000030: 68aa fe3e 8267 c53c f238 56bd 4069 d33e
00000040: 4d9e 293e 210b 6c3e 5727 8a3e 699e 0bbf
00000050: 1ac6 923e 8760 2cbd 98c0 0cbf b4fe 28be
00000060: 01a3 99bd 7f7c 303e ee54 343e 9f94 f3bd
00000070: 42c6 0ebe 7fa2 763f e145 7a3d c7df 4d3e
00000080: 579c 1dbe bf0b c23d 4853 b4be 3b22 f5be
00000090: d659 7e3f b17e 20bf e056 bebe cda0 89be
000000a0: 372e 76be a230 62be 090a 543e 2dbb 5ebd
000000b0: 34a2 533e 7d8a 803e 18aa 5c3e 602f 263f
000000c0: 0599 2cbe 83f9 263e fd43 d1be dc1c d83d
000000d0: 740a b9be ca6d babd
0.24598582 -0.7688818 0.15199365 -0.22435074 0.79997146 -0.33680677 0.41291186 0.7098991
-0.42803958 0.24430554 -0.47352356 0.1319422 0.49739385 0.024097208 -0.0523004 0.41291237
0.16564293 0.2305112 0.2698314 -0.5453859 0.28666764 -0.042084243 -0.54981375 -0.16503412
-0.07501794 0.17234991 0.17610523 -0.118935816 -0.13942817 0.963417 0.061101798 0.20104896
-0.1539167 0.09474897 -0.3521979 -0.47877678 0.9935583 -0.62693316 -0.37175655 -0.26880494
-0.24041067 -0.22088864 0.20706953 -0.054377723 0.20667344 0.25105658 0.2154926 0.6491604
-0.16855247 0.16306119 -0.40872183 0.105523795 -0.36140788 -0.09102972

model.9.running_var f4 [54]
00000000: 2fac 363f 9478 733f e211 f43e 8a3c f33e
00000010: 0550 053f 0bd4 b63f 5f3b 513f b582 253f
00000020: 95d1 7c3f fc96 2c3f 0c95 e53f 0262 aa3f
00000030: 04a7 ba3f 0c43 fa3e b937 9f3e 3d2f 873f
00000040: a09b 873f 32d0 a23e 5dc4 0e40 a3f4 843f
00000050: 9071 b83e 1d42 fa3f fcc8 803f ad64 3d3f
00000060: cae9 fd3e 43cd 353f 26fa 9b3f b07d 0f3f
00000070: 4e01 243f be37 133f 1ab1 073f 5f11 233f
00000080: b3d1 0a3f e2a2 b83f 806e 1c3f 25eb f03e
00000090: bbd1 043f 2b85 3d3f 5d4d 913f c84a 033f
000000a0: 4563 463f 92c1 223f fdbd d83e bd94 653f
000000b0: 19cf e03e 44f2 383f 3340 d83f 2b50 da3e
000000c0: c31a 893f 1c3f 683f 63f7 0b3f 8749 063f
000000d0: be4c 1a3f 0a50 9d3f
0.7135648 0.9510586 0.47669894 0.47507125 0.52075225 1.428346 0.8173122 0.6465257
0.98757297 0.67417884 1.793611 1.331116 1.4582219 0.48879278 0.310972 1.0561291
1.0594368 0.31799465 2.230735 1.0387157 0.3602414 1.9551426 1.0061336 0.73981744
0.4959243 0.7101633 1.2185714 0.5605116 0.6406449 0.5750693 0.5300461 0.6369838
0.54226226 1.4424708 0.6110611 0.470544 0.51882523 0.74031323 1.1351734 0.5128598
0.77495223 0.63576615 0.4233245 0.8968008 0.43908003 0.7224467 1.6894592 0.42639288
1.0711292 0.907213 0.5467436 0.52455944 0.6027335 1.2290051
